lstm_strat/lstm_jan_may.pt (torch, 61845 bytes, 9 tensors)

weight_ih_l0 f4 [128, 1]
-0.030918982 -0.12944043 0.09487436 -0.19506043 -0.10810954 0.1086459 0.07479916 0.09805404
0.036409 0.25361833 -0.05659842 0.17049983 -0.22481605 0.11104988 -0.0944359 -0.3818799
0.02268618 -0.25609884 -0.104014374 -0.17493927 -0.28320065 -0.12263424 -0.09400313 -0.060034998
-0.024883145 -0.23217225 -0.34106296 -0.10131175 0.046163313 -0.10793808 0.04254789 0.073177576
-0.058596414 -0.3023627 0.16517505 -0.13249297 -0.0559533 -0.09573864 0.14526902 0.11027262
0.13406855 -0.054100018 -0.036429532 0.19762772 -0.3016937 0.013175435 -0.065312006 -0.26772246
0.01807093 -0.34117317 -0.13021559 -0.1660141 -0.090079576 0.05381063 -0.073708594 -0.05146152
0.04729253 -0.5874162 -0.36634204 0.065438196 -0.11514822 0.03959776 0.086505815 -0.030905982
-0.11456038 0.19401014 0.22064811 -0.10961678 0.028227769 0.040105637 0.19284545 -0.18114835
0.22505885 0.15038413 0.04561853 -0.21739835 -0.23511037 -0.15031667 -0.17446777 -0.19578539
-0.0927533 0.11261507 -0.17703414 -0.052275997 -0.07080585 0.068371944 0.13976987 0.1803768
-0.16243133 -0.21395712 -0.15124528 -0.17965542 0.16766176 -0.22875008 -0.13997683 0.11682732
-0.29173574 -0.1853672 0.1247269 0.03981909 -0.03852183 0.03169943 -0.011131293 0.121107005
-0.039503157 0.027572108 0.08855932 0.1415047 -0.22705045 0.09114601 -0.1031598 -0.33149624
0.054150406 -0.15176298 0.045526102 -0.064179316 -0.06788832 0.028600756 -0.0036961774 0.058221906
0.06795548 -0.45704526 -0.32319835 -0.065819845 -0.2135734 -0.104723714 0.120171 0.07386765
00000000: ce49 fdbc 088c 04be 7d4d c23d ecbd 47be
00000010: 8968 ddbd be81 de3d 4d30 993d 8ed0 c83d
00000020: 9b21 153d 43da 813e bfd3 67bd 8297 2e3e
00000030: 2e36 66be 1f6e e33d 9c67 c1bd c385 c3be
00000040: 5ed8 b93c 631f 83be 7d05 d5bd 4823 33be
00000050: adff 90be a927 fbbd b784 c0bd 42e7 75bd
00000060: bdd7 cbbc 90be 6dbe ce9f aebe 897c cfbd
00000070: be15 3d3d a40e ddbd b246 2e3d 20de 953d
00000080: cb02 70bd 49cf 9abe a623 293e 3dac 07be
00000090: 4a2f 65bd 9f12 c4bd 67c1 143e 9dd6 e13d
000000a0: 4449 093e fb97 5dbd 2237 15bd ec5e 4a3e
000000b0: 9977 9abe c8dd 573c 4dc2 85bd eb12 89be
000000c0: 7d09 943c 40ae aebe 3c57 05be 9aff 29be
000000d0: a47b b8bd 8968 5c3d 88f4 96bd 51c9 52bd
000000e0: d0b5 413d e860 16bf 2f91 bbbe 7604 863d
000000f0: d4d2 ebbd 4331 223d f629 b13d 8b2e fdbc
00000100: a29e eabd 98aa 463e 94f1 613e c37e e0bd
00000110: ec3d e73c cf45 243d 4779 453e f47e 39be
00000120: d475 663e 4cfe 193e 7fda 3a3d ac9d 5ebe
00000130: c6c0 70be 9dec 19be aea7 32be f77b 48be
00000140: 71f5 bdbd bba2 e63d 7048 35be 5b1f 56bd
00000150: a802 91bd 9706 8c3d d51f 0f3e b2b4 383e
00000160: 6654 26be 9317 5bbe 0be0 1abe 97f7 37be
00000170: 86af 2b3e 763d 6abe 1656 0fbe 2943 ef3d
00000180: 635e 95be e6d0 3dbe d170 ff3d 5819 233d
00000190: 11c9 1dbd 43d7 013d 0760 36bc f306 f83d
000001a0: 10ce 21bd e7de e13c 975e b53d 9ce6 103e
000001b0: ea7f 68be c2aa ba3d 7245 d3bd e0b9 a9be
000001c0: d1cc 5d3d c167 1bbe 9479 3a3d 7270 83bd
000001d0: 0809 8bbd 224c ea3c 913b 72bb 187a 6e3d
000001e0: 3e2c 8b3d d601 eabe 417a a5be 8ecc 86bd
000001f0: fcb2 5abe 6379 d6bd 371c f63d ec47 973d

weight_hh_l0 f4 [128, 32]
-0.046557333 -0.13835971 0.02915166 -0.09639193 -0.047871 -0.09807691 -0.08065706 0.031023806
-0.2437929 -0.07598401 -0.09221266 -0.089330785 0.059965093 -0.11082327 -0.019836662 0.16635282
0.19787936 -0.10222179 -0.023635684 -0.061046205 0.11517279 0.11230324 0.2861046 -0.13438141
0.099745154 -0.13860376 0.123105474 -0.05000955 -0.08638234 -0.027591532 -0.045403756 -0.012197296
0.18337367 -0.08136904 0.07624837 0.07082614 0.12018687 0.011058095 -0.04143136 0.11542875
-0.0743176 0.049288046 0.050597522 -0.04428358 -0.046679143 0.08237129 -0.028471107 -0.038294557
0.017468696 0.090345934 0.23443381 0.09641538 -0.062928356 -0.003586132 0.28100693 -0.20507903
0.10161642 0.16640104 -0.14028695 -0.038333584 -0.079338714 0.14800845 0.10211703 -0.11413649
-0.043220516 -0.0035106165 -0.013319872 -0.15474345 0.13900168 -0.11071525 0.17107031 0.025343368
0.12293651 0.15841903 -0.07610861 -0.13693206 0.14582385 0.024661308 -0.10153353 0.09983253
0.1504125 -0.13608399 0.03430918 -0.1649244 0.21631902 -0.15214449 0.29386374 -0.00014041887
-0.012493142 -0.01598858 0.07883548 0.071079046 -0.0244516 0.05826303 0.10881661 0.14405319
0.080189295 -0.08947672 0.010365994 0.056047153 0.06452973 0.07812759 -0.14205192 0.19653895
-0.16825403 -0.14834008 -0.17477287 -0.029601945 -0.07319414 0.11122976 -0.0034800863 -0.2192934
0.26105425 0.09735834 0.23384547 0.14902529 -0.09545737 -0.07100978 0.031351004 -0.14400224
0.05815518 -0.03153859 -0.18875886 0.20303231 -0.011031464 0.12864982 0.21334216 -0.11525664
0.08097182 0.025236132 -0.111406304 -0.06318068 0.050608736 -0.020611962 0.088131174 -0.21172795
-0.074420854 0.16904229 0.03919342 0.014200444 -0.03352189 0.029665187 0.08915903 0.010112432
-0.04076138 -0.1004128 0.08082874 0.16655418 0.054559816 0.04458455 0.28420666 -0.015517991
-0.19841355 0.04167268 -0.10324987 -0.14781334 0.17559564 -0.077344865 -0.06044544 -0.11117883
-0.24019106 0.23675834 0.055783167 -0.27912956 0.04940196 -0.21212843 -0.0844893 -0.08855293
0.123805605 -0.05474643 -0.07304638 -0.16724949 -0.23598894 -0.07921033 -0.15163258 -0.3272274
0.1285924 0.15690087 0.13136153 -0.15688936 -0.16037568 -0.10116411 0.058390573 0.12765664
-0.03922976 -0.22046079 -0.32941863 0.086536765 0.021706533 -0.027750436 0.22068334 -0.054383054
0.06915751 0.11846369 0.22121029 0.14426097 0.017281746 -0.024405265 0.09125993 0.041115377
-0.113809176 0.21650027 0.033940293 0.02097645 -0.18485183 0.084309325 -0.10066843 -0.013913426
-0.0031785527 0.08220251 -0.04871705 0.1443261 -0.14506578 -0.055508506 -0.014574048 0.16737586
-0.047949776 0.04925135 0.27100682 -0.1234253 0.09471215 -0.005381241 -0.013642761 -0.035492763
0.04118176 0.01851644 -0.015092369 0.16686307 0.008463593 0.05500618 0.04432752 -0.18642165
-0.030085202 0.055181194 0.030954015 -0.006413193 -0.027817983 -0.14220282 -0.10786743 0.14300057
-0.05448699 -0.16537985 0.049888834 -0.12651642 -0.0072426866 0.05143944 -0.05571758 0.1099803
-0.28540853 -0.09017725 -0.06976738 -0.023891164 0.14976792 -0.19300568 -0.16349253 0.11493701
00000000: e7b2 3ebd 2bae 0dbe 76cf ee3c 2269 c5bd
00000010: 6214 44bd 8cdc c8bd 872f a5bd a325 fe3c
00000020: d9a4 79be 819d 9bbd fed9 bcbd 0ff3 b6bd
00000030: f59d 753d 50f7 e2bd 7f80 a2bc 6558 2a3e
00000040: e3a0 4a3e a859 d1bd 9f9f c1bc 960b 7abd
00000050: b6df eb3d 3eff e53d 4d7c 923e 489b 09be
00000060: 3047 cc3d 25ee 0dbe b91e fc3d d0d6 4cbd
00000070: 39e9 b0bd a307 e2bc 4af9 39bd 2bd7 47bc
00000080: 4fc6 3b3e d0a4 a6bd 1b28 9c3d 4c0d 913d
00000090: 8924 f63d 032d 353c eeb3 29bd e965 ec3d
000000a0: d333 98bd 43e2 493d 593f 4f3d b362 35bd
000000b0: a132 3fbd 47b2 a83d 3d3c e9bc c1da 1cbd
000000c0: 831a 8f3c 4a07 b93d 6b0f 703e 6d75 c53d
000000d0: 95e0 80bd 5005 6bbb 24e0 8f3e 3d00 52be
000000e0: 451c d03d 0965 2a3e 62a7 0fbe ad03 1dbd
000000f0: 567c a2bd 878f 173e bc22 d13d 64c0 e9bd
00000100: ff07 31bd 5f12 66bb 983b 5abc 1175 1ebe
00000110: 7556 0e3e adbe e2bd 0e2d 2f3e e59c cf3c
00000120: 23c6 fb3d 9938 223e d5de 9bbd eb37 0cbe
00000130: d952 153e 8306 ca3c d0f0 cfbd ff74 cc3d
00000140: bc05 1a3e 9a59 0bbe c887 0c3d f1e1 28be
00000150: bc82 5d3e c4cb 1bbe 4f75 963e 673d 13b9
00000160: 09b0 4cbc 7cfa 82bc 7f74 a13d e491 913d
00000170: b94e c8bc 37a5 6e3d 3edb de3d ae82 133e
00000180: 493a a43d 923f b7bd 21d6 293c b391 653d
00000190: 2a28 843d 5c01 a03d 0f76 11be 8241 493e
000001a0: c94a 2cbe 76e6 17be a9f7 32be c77f f2bc
000001b0: cfe6 95bd 6ecc e33d 2912 64bb 738e 60be
000001c0: e7a8 853e cf63 c73d 3075 6f3e 169a 183e
000001d0: 277f c3bd 936d 91bd e969 003d 5375 13be
000001e0: 2034 6e3d 9c2e 01bd 014a 41be b4e7 4f3e
000001f0: 50bd 34bc c7bc 033e 5e76 5a3e ac0b ecbd
00000200: 8ed4 a53d 01bc ce3c fd28 e4bd df64 81bd
00000210: 1b4b 4f3d 6bda a8bc 1e7e b43d 36cf 58be
00000220: f669 98bd 6c19 2d3e 4889 203d fba8 683c
00000230: 404e 09bd 6804 f33c 0299 b63d 9dae 253c
00000240: 68f5 26bd 3aa5 cdbd 8a89 a53d 2e8d 2a3e
00000250: 1d7a 5f3d 4a9e 363d 8983 913e 2c3f 7ebc
00000260: ec2c 4bbe f9b0 2a3d ab74 d3bd 615c 17be
00000270: 58cf 333e fc66 9ebd a395 77bd bab1 e3bd
00000280: a5f4 75be c770 723e e47c 643d 12ea 8ebe
00000290: b659 4a3d 3238 59be ba08 adbd 3d5b b5bd
000002a0: cb8d fd3d cb3d 60bd 5799 95bd 7343 2bbe
000002b0: 16a7 71be 0739 a2bd 9245 1bbe 5a8a a7be
000002c0: baad 033e 9faa 203e a383 063e 9ba7 20be
000002d0: 8639 24be 212f cfbd f42a 6f3d 6cb8 023e
000002e0: 63af 20bd 79c0 61be 8fa9 a8be 303a b13d
000002f0: e6d1 b13c e254 e3bc d0fa 613e c4c0 5ebd
00000300: 74a2 8d3d 179d f23d f384 623e 26b9 133e
00000310: 7392 8d3c 8ded c7bc 7ce6 ba3d 9968 283d
00000320: c914 e9bd 3fb2 5d3e fa04 0b3d ced6 ab3c
00000330: cc49 3dbe 5eaa ac3d 402b cebd 23f5 63bc
00000340: 444f 50bb ca59 a83d 888b 47bd 39ca 133e
00000350: 208c 14be e35c 63bd fdc7 6ebc 9464 2b3e
00000360: fc66 44bd c9bb 493d 68c1 8a3e 67c6 fcbd
00000370: 72f8 c13d 1f55 b0bb e385 5fbc dc60 11bd
00000380: 35ae 283d caaf 973c fc45 77bc 27de 2a3e
00000390: e2aa 0a3c 294e 613d c690 353d 51e5 3ebe
000003a0: 3e75 f6bc ad05 623d 4693 fd3c c325 d2bb
000003b0: 8ae2 e3bc 9e9d 11be 99e9 dcbd be6e 123e
000003c0: c02d 5fbd 5659 29be 3c58 4c3d 858d 01be
000003d0: 0f54 edbb 2ab2 523d 1e38 64bd 5a3d e13d
000003e0: 1121 92be daae b8bd 33e2 8ebd 67b7 c3bc
000003f0: c35c 193e 48a3 45be 966a 27be 1864 eb3d

bias_ih_l0 f4 [128]
-0.14262843 -0.15292822 -0.095840946 -0.13330512 -0.16548596 -0.16194037 0.14027354 0.1881488
0.15731122 0.17463148 -0.024613338 0.14621578 0.0021825498 0.09897827 -0.052269727 -0.13671769
-0.12012246 -0.22339688 -0.13047443 -0.07816254 -0.10833639 -0.23907445 0.046784062 0.05975715
0.0554633 -0.036753826 -0.03113846 0.20734394 -0.13235267 -0.011096636 -0.17827342 -0.10765067
-0.10639252 -0.026556268 -0.14165765 0.06995913 -0.006558842 -0.3215964 0.13725217 0.013475301
-0.011305443 0.046785075 -0.11219334 -0.03386989 -0.03294344 -0.19054157 0.015175984 -0.111846246
-0.14051601 -0.15554394 -0.105022475 0.09140413 -0.07816915 -0.20267974 -0.1222194 -0.0951593
-0.045163468 -0.119241394 -0.09730179 0.20194963 -0.05034581 0.20068426 -0.10068634 -0.049049057
-0.04416979 -0.022422079 0.13100389 -0.024610879 -0.047721088 -0.11848958 0.011538993 -0.13898714
0.030880708 -0.088877015 -0.07120398 -0.042037655 0.14672388 -0.01881365 -0.098163255 0.1360929
-0.081522636 -0.052208 -0.021538027 0.10179954 -0.10605254 0.008927124 0.095936924 -0.035380766
-0.0016051382 0.044134222 0.043814752 0.064140506 -0.14130627 -0.06285378 -0.07606259 0.10070671
-0.0040909383 0.13722797 0.17122158 0.073064744 -0.21014616 -0.27096498 -0.065467335 0.18228574
-0.058792718 0.1930314 -0.015041341 0.18750143 0.050574914 0.0744659 0.20315702 0.038707774
0.15922992 -0.09250353 -0.14326441 -0.1897488 -0.26636457 -0.22305244 -0.009228022 0.04763127
0.054064192 -0.113129035 -0.10212369 0.12314378 0.17480053 0.042208824 -0.11378208 0.019957248
00000000: 300d 12be 3799 1cbe 4248 c4bd 2381 08be
00000010: 2775 29be b2d3 25be dea3 0f3e 14aa 403e
00000020: 3116 213e 98d2 323e e9a1 c9bc 97b9 153e
00000030: 1c09 0f3b 1fb5 ca3d c818 56bd b9ff 0bbe
00000040: c402 f6bd 27c2 64be 179b 05be af13 a0bd
00000050: 78df ddbd efcf 74be a5a0 3f3d eac3 743d
00000060: 7c2d 633d 2e8b 16bd 1516 ffbc f851 543e
00000070: 7587 07be aace 35bc 4f8d 36be f477 dcbd
00000080: 52e4 d9bd 888c d9bc b40e 11be bb46 8f3d
00000090: 8eeb d6bb 49a8 a4be d58b 0c3e 82c7 5c3c
000000a0: 773a 39bc b5a1 3f3d 9fc5 e5bd 27bb 0abd
000000b0: b3ef 06bd 541d 43be b1a4 783c a50f e5bd
000000c0: 6ee3 0fbe e946 1fbe 0616 d7bd 1732 bb3d
000000d0: 2617 a0bd 478b 4fbe 2a4e fabd e1e2 c2bd
000000e0: 54fd 38bd d534 f4bd 2946 c7bd e2cb 4e3e
000000f0: 6837 4ebd 2d80 4d3e a434 cebd aae7 48bd
00000100: 62eb 34bd 82ae b7bc e225 063e c19c c9bc
00000110: 3077 43bd aaaa f2bd 0b0e 3d3c a552 0ebe
00000120: 8af9 fc3c 2705 b6bd 64d3 91bd ad2f 2cbd
00000130: c93e 163e 151f 9abc d109 c9bd f05b 0b3e
00000140: 57f5 a6bd 0ed8 55bd 8470 b0bc 477c d03d
00000150: 1332 d9bd 1243 123c 947a c43d 6ceb 10bd
00000160: 8063 d2ba 16c6 343d 1977 333d 195c 833d
00000170: 97b2 10be 7cb9 80bd b4c6 9bbd 523f ce3d
00000180: 470d 86bb 7d85 0c3e b654 2f3e f8a2 953d
00000190: 8e30 57be ecbb 8abe bd13 86bd 1da9 3a3e
000001a0: a2d0 70bd 06aa 453e f56f 76bc 6000 403e
000001b0: a427 4f3d 9481 983d 6508 503e 0b8c 1e3d
000001c0: 2b0d 233e 7e72 bdbd e8b3 12be 824d 42be
000001d0: f060 88be dc67 64be 2131 17bc 0219 433d
000001e0: 6a72 5d3d 32b0 e7bd 3a26 d1bd ce32 fc3d
000001f0: e9fe 323e 29e3 2c3d 9406 e9bd 627d a33c

bias_hh_l0 f4 [128]
-0.14549296 0.0468271 -0.032154545 -0.22671613 -0.1271059 -0.3146702 0.03951718 0.07142567
-0.014841934 -0.04475392 -0.08429117 -0.06638802 0.14304854 -0.022345494 0.0038259865 -0.09562496
0.00051947136 -0.016325181 -0.05259477 -0.17168023 -0.11039202 -0.048541196 -0.17130649 -0.02556354
0.01912451 -0.11564625 0.024497548 0.014556712 -0.16838363 0.13202761 -0.19436069 0.12429243
0.0054015475 0.06271538 0.15409483 -0.10457619 -0.07879741 -0.055222996 0.18835385 0.06674555
0.01906839 0.06734814 -0.007302945 0.20984311 0.20325424 0.0071001947 -0.038060408 -0.042438358
0.008011443 -0.19488987 -0.13939638 -0.057249945 -0.14281325 -0.002182485 -0.057236943 -0.047246344
-0.25687146 0.057833966 0.00969845 0.029237103 0.011476258 0.20055485 -0.10648243 -0.06840556
0.10203808 -0.09216288 -0.10533109 0.094146565 0.06460287 0.12271274 0.10659087 0.029156646
-0.08843144 0.087359846 0.05183754 0.03581615 -0.04064047 -0.0563185 0.16443063 0.045698058
0.023586331 -0.059060328 -0.11410075 -0.111649096 0.07403634 -0.0077905427 -0.15537757 0.04104604
0.063997045 0.13462053 0.074737005 -0.14155407 0.10929121 0.12768105 0.016912304 -0.100770086
0.11267834 0.14358854 0.044947956 -0.020474877 -0.108762085 -0.100073256 -0.022388773 -0.08531397
0.12365103 -0.081032366 -0.21753521 0.019355856 0.07685093 -0.19315456 0.014598868 0.17387058
-0.15225214 -0.07892536 -0.009372393 -0.09112942 -0.067123935 0.00064082735 0.01848596 0.04431478
-0.055141408 -0.012828144 0.08658068 0.059151348 -0.05273491 0.04734354 -0.01952634 -0.03798623
00000000: 1bfc 14be c6cd 3f3d 7cb4 03bd 4628 68be
00000010: 0d28 02be 741c a1be c4dc 213d 9f47 923d
00000020: 952b 73bc e34f 37bd d9a0 acbd 71f6 87bd
00000030: 517b 123e e60d b7bc 67bd 7a3b 05d7 c3bd
00000040: 222d 083a 63bc 85bc 9d6d 57bd f1cc 2fbe
00000050: 3615 e2bd 22d3 46bd f86a 2fbe a16a d1bc
00000060: 01ab 9c3c f1d7 ecbd 15af c83c 467f 6e3c
00000070: c26c 2cbe 3f32 073e 7d06 47be 088d fe3d
00000080: 77ff b03b ec70 803d 09cb 1d3e 0b2c d6bd
00000090: 8960 a1bd 8231 62bd d5df 403e e4b1 883d
000000a0: 5035 9c3c d2ed 893d 8b4d efbb 1de1 563e
000000b0: e121 503e c0a8 e83b 3be5 1bbd d8d3 2dbd
000000c0: 6d42 033c 3691 47be edbd 0ebe eb7e 6abd
000000d0: a33d 12be 0608 0fbb 4971 6abd 6285 41bd
000000e0: a884 83be 4fe3 6c3d 3fe6 1e3c a682 ef3c
000000f0: ea06 3c3c 405e 4d3e 7613 dabd 3718 8cbd
00000100: 57f9 d03d e4bf bcbd d4b7 d7bd eacf c03d
00000110: 824e 843d d150 fb3d 504c da3d ebd9 ee3c
00000120: 8b1b b5bd b8e9 b23d 9a53 543d f5b3 123d
00000130: 9f76 26bd 3aae 66bd 8160 283e e32d 3b3d
00000140: 1f38 c13c 3ee9 71bd a7ad e9bd 48a8 e4bd
00000150: 5da0 973d cf47 ffbb 4c1b 1fbe e41f 283d
00000160: e210 833d f7d9 093e b70f 993d 8df3 10be
00000170: 12d4 df3d d2be 023e ac8b 8a3c 8c60 cebd
00000180: e7c3 e63d e008 133e 591b 383d eeba a7bc
00000190: a8be debd 35f3 ccbd a968 b7bc 17b9 aebd
000001a0: c03c fd3d 4cf4 a5bd 8dc1 5ebe 2c90 9e3c
000001b0: 0564 9d3d 4fca 45be 1730 6f3c 210b 323e
000001c0: fce7 1bbe 9fa3 a1bd aa8e 19bc 10a2 babd
000001d0: 4678 89bd 32fd 273a de6f 973c 6a83 353d
000001e0: f5db 61bd 232d 52bc 3651 b13d af48 723d
000001f0: 9000 58bd 4deb 413d b4f5 9fbc 7397 1bbd

weight_ih_l1 f4 [128, 32]
0.019459154 0.07759506 0.12774187 -0.1548991 -0.03379845 -0.13423228 0.24295892 -0.2682287
0.19651718 0.12631176 0.16924617 -0.08119093 -0.090256736 -0.06413671 -0.0937752 -0.17770849
-0.1280765 0.06040459 -0.19456178 0.049348388 -0.007823842 0.16614002 0.10287718 0.14215676
0.012409449 -0.22236896 -0.18868126 0.020879338 0.13112208 -0.05185527 -0.14687201 0.17633902
-0.118024446 -0.04796264 0.24929303 -3.6036567e-05 -0.08403297 0.1579251 0.026062127 -0.03887197
0.0036153023 0.22361626 -0.050829507 -0.13192022 -0.13190837 -0.2069117 -0.013442846 -0.18578658
-0.17039967 -0.026883865 -0.05990663 -0.117323495 -0.15544766 0.024043595 0.24493761 -0.06609242
-0.32404387 0.10994551 0.13746394 -0.1681998 0.27042362 -0.1707597 -0.11842132 -0.034080245
-0.21652873 0.26535776 0.012770901 0.12779403 -0.050029106 0.065471955 0.013280187 -0.16438809
0.07697812 -0.076411545 -0.14131911 -0.11726612 -0.3259129 -0.15229437 0.02893791 -0.27425084
-0.01980196 0.043376993 -0.23721613 0.005190149 -0.10208407 0.023863116 0.16645224 0.1712186
-0.09117388 -0.23765998 -0.23510142 -0.07196355 0.0067190835 -0.047529172 -0.18330844 -0.047221392
-0.15291177 0.0064175525 0.26897252 0.00024010408 0.12427937 0.033137765 -0.06954725 -0.08609609
-0.023756959 0.11548237 -0.119155265 -0.08996133 -0.2552198 0.024538657 -0.19724098 -0.050191004
-0.075367264 0.15309276 0.007903057 -0.09876727 -0.11298115 -0.06974775 0.04750355 0.13856527
-0.24864142 -0.0031517905 0.13025086 -0.11103396 -0.027271885 0.053607643 0.038462564 0.094672024
-0.04125141 0.03045128 -0.15508597 0.043286882 -0.19379224 -0.059359755 -0.09001702 0.106317
-0.05016644 -0.2766255 -0.14484341 -0.04026854 -0.0069451714 0.06768827 0.15721382 0.18034422
0.22416063 0.05845322 0.11069635 -0.021984132 0.2140175 -0.06836886 0.0609683 -0.28419942
-0.075449795 -0.034572653 0.047613032 0.22151911 -0.1209209 0.05957255 0.14096418 0.031277556
0.2259854 -0.06560937 0.009323207 -0.011641266 -0.1389295 -0.07036338 0.12276367 -0.13746445
0.058803875 -0.004903703 -0.17136495 0.0499892 0.18537548 0.08577048 0.07518415 -0.011467146
0.15924655 -0.19229946 0.005349738 0.20294853 0.26554194 -0.05206262 0.28994384 0.17757662
0.173242 0.26004618 0.22109757 0.12206875 -0.11658217 0.15728079 0.106098674 -0.09123484
-0.21123601 0.09229444 -0.010739747 -0.31639168 0.023796596 -0.017709121 0.13615897 -0.062824875
-0.01579523 0.13524868 0.067241564 -0.06913239 -0.3326234 0.063156314 -0.265022 -0.39326757
-0.07505757 0.1911854 -0.02797289 -0.09663672 -0.15136634 0.0039986484 -0.07698509 0.05942828
-0.07117704 -0.15439619 -0.2742801 -0.16186485 0.035263363 -0.02657191 0.2650312 0.100505866
0.06250164 -0.09152738 0.049957007 -0.19889668 -0.22652553 0.0107213175 0.102201894 -0.016161393
-0.07881364 -0.047806613 0.086890124 -0.085035145 -0.23926088 -0.00029903156 -0.12695216 -0.014812638
-0.038113605 -0.011851694 0.02106518 -0.1642267 -0.07463187 -0.21751326 0.040411524 -0.12583311
-0.2573037 -0.08856765 -0.021441745 0.031713698 0.033569355 0.022886818 -0.07435129 -0.028874416
00000000: ce68 9f3c 29ea 9e3d c4ce 023e df9d 1ebe
00000010: 3e70 0abd 3074 09be 39ca 783e 4655 89be
00000020: cd3b 493e df57 013e de4e 2d3e 6e47 a6bd
00000030: 86d8 b8bd 1b5a 83bd 360d c0bd 37f9 35be
00000040: 7c26 03be ce6a 773d 343b 47be 8921 4a3d
00000050: 922f 00bc 9c20 2a3e 45b1 d23d 8b91 113e
00000060: 0051 4b3c b0b4 63be a935 41be 250b ab3c
00000070: de44 063e 3166 54bd 9e65 16be 3792 343e
00000080: cdb6 f1bd 7974 44bd ac46 7f3e f825 17b8
00000090: 7a19 acbd 1eb7 213e 3e80 d53c 3738 1fbd
000000a0: b5ee 6c3b a9fb 643e 9a32 50bd 1816 07be
000000b0: fd12 07be a9e0 53be 623f 5cbc d63e 3ebe
000000c0: 407d 2ebe 8d3b dcbc a860 75bd 4d47 f0bd
000000d0: ac2d 1fbe 13f7 c43c edd0 7a3e 765b 87bd
000000e0: 14e9 a5be 1d2b e13d 59c3 0c3e 923c 2cbe
000000f0: f774 8a3e a1db 2ebe e186 f2bd ba97 0bbd
00000100: b5b9 5dbe f9dc 873e 0b3d 513c 70dc 023e
00000110: 52eb 4cbd 2916 863d 2495 593c 5a55 28be
00000120: b4a6 9d3d a87d 9cbd f5b5 10be 3829 f0bd
00000130: 0ede a6be 0ef3 1bbe 320f ed3c 9b6a 8cbe
00000140: b837 a2bc 13ac 313d c9e8 72be 2012 aa3b
00000150: 7411 d1bd 957c c33c 7572 2a3e ee53 2f3e
00000160: 5fb9 babd 235d 73be 6dbe 70be a061 93bd
00000170: c22b dc3b f3ad 42bd 35b5 3bbe 386b 41bd
00000180: e794 1cbe 554a d23b c4b6 893e 73c4 7b39
00000190: 2f86 fe3d 77bb 073d ca6e 8ebd 2653 b0bd
000001a0: f49d c2bc 0582 ec3d ad07 f4bd a53d b8bd
000001b0: 2bac 82be 4b05 c93c 8af9 49be 1595 4dbd
000001c0: 275a 9abd 59c4 1c3e d37b 013c 7f46 cabd
000001d0: a962 e7bd e9d7 8ebd 1593 423d 0ee4 0d3e
000001e0: db9b 7ebe 458e 4ebb 7b60 053e c665 e3bd
000001f0: 4a69 dfbc b093 5b3d ec8a 1d3d 68e3 c13d
00000200: 3df7 28bd f674 f93c dbce 1ebe 964d 313d
00000210: 7971 46be 3723 73bd d85a b8bd babc d93d
00000220: 537b 4dbd dca1 8dbe d551 14be a0f0 24bd
00000230: 5294 e3bb 26a0 8a3d a9fc 203e 28ac 383e
00000240: 5d8a 653e a56c 6f3d c5b4 e23d 1118 b4bc
00000250: 6727 5b3e f904 8cbd e5b9 793d 9682 91be
00000260: 6c85 9abd 0e9c 0dbd e205 433d e8d5 623e
00000270: 60a5 f7bd 5902 743d ea58 103e e51c 003d
00000280: b768 673e 355e 86bd 5dc0 183c 02bb 3ebc
00000290: 8943 0ebe ad1a 90bd 856b fb3d 7bc3 0cbe
000002a0: 55dc 703d 3eaf a0bb 4b7a 2fbe 7ac1 4c3d
000002b0: 12d3 3d3e 6fa8 af3d 26fa 993d b2e0 3bbc
000002c0: 8711 233e 26ea 44be db4c af3b bdd1 4f3e
000002d0: 1df5 873e 9d3f 55bd 8573 943e a5d6 353e
000002e0: 5a66 313e c624 853e 6767 623e 2eff f93d
000002f0: a2c2 eebd 370e 213e 434a d93d 55d9 babd
00000300: 414e 58be de04 bd3d c4f5 2fbc 17fe a1be
00000310: 14f1 c23c b812 91bc 426d 0b3e 54aa 80bd
00000320: 0065 81bc a17e 0a3e f2b5 893d 4895 8dbd
00000330: 9d4d aabe 1958 813d f7b0 87be 5e5a c9be
00000340: c9b7 99bd 1bc6 433e 6727 e5bc 79e9 c5bd
00000350: c7ff 1abe 1807 833b 5caa 9dbd 116b 733d
00000360: 45c5 91bd 091a 1ebe 716e 8cbe e6bf 25be
00000370: 5170 103d 56ad d9bc 2bb2 873e 05d6 cd3d
00000380: dc00 803d b572 bbbd b89f 4c3d 92ab 4bbe
00000390: 4ff6 67be 77a8 2f3c 3a4f d13d e664 84bc
000003a0: 0c69 a1bd ded0 43bd 73f3 b13d e826 aebd
000003b0: ce00 75be 56c7 9cb9 bfff 01be b5b0 72bc
000003c0: 031d 1cbd 9c2d 42bc e290 ac3c 0b2b 28be
000003d0: 98d8 98bd ccbb 5ebe 8e86 253d 65da 00be
000003e0: 50bd 83be f562 b5bd 99a6 afbc 39e6 013d
000003f0: 0580 093d 237d bb3c 7d45 98bd 0a8a ecbc

weight_hh_l1 f4 [128, 32]
-0.12057811 0.044855498 0.039426204 0.028455783 0.0872541 0.12784828 0.10868641 -0.09495157
0.1590574 -0.009919933 -0.080264494 -0.101857714 -0.11040448 0.06995024 -0.019660918 -0.07904584
0.11108728 0.11761885 -0.0400949 0.04339279 -0.011669207 0.066265754 -0.1250652 -0.10199051
-0.13742414 0.09335423 0.003622911 0.014427028 0.14149266 -0.11290564 0.07176105 0.082459435
-0.08405141 0.0033577532 -0.17554432 -0.10840271 0.091451794 0.036972634 -0.12754078 0.111274645
0.040703624 0.014044996 0.14088014 0.08070187 0.18542133 0.23413011 -0.12793744 -0.08957088
0.20762783 0.052666042 -0.21340515 -0.027896969 -0.06370579 -0.004639437 0.1766202 -0.0032502506
0.075815044 0.037361022 0.11199948 -0.10605505 0.0677337 0.027219316 0.015527691 0.13186935
0.020154042 0.1042676 -0.07287332 0.120714754 0.11389888 0.19362201 -0.09327412 -0.060800042
0.027817542 -0.06552669 0.030796366 0.10795032 -0.16304702 0.1867834 0.052540075 0.039975174
-0.1506887 -0.10201119 -0.067891054 -0.111396834 0.00570722 0.19615275 -0.05686735 0.107856244
-0.12873833 0.14757991 -0.17988048 -0.029740134 0.12865886 0.052843664 -0.02180492 0.10530259
0.052317653 0.17898448 0.13119885 0.0511812 0.1451402 -0.062165193 -0.047118783 0.117903434
-0.03496016 -0.12025801 0.028731735 -0.10162645 0.17626223 -0.03990686 -0.15525384 0.02523366
0.091846235 -0.026938863 0.038438834 0.027882045 -0.12849511 0.14771233 -0.11884949 0.086774714
-0.09379207 0.1119346 -0.02246724 0.14542946 0.20475568 -0.14205854 0.052446246 -0.067059234
-0.1544271 0.002515556 -0.003476078 0.049392994 -0.06740669 0.15861449 0.038204268 0.17023435
0.015986662 0.06759764 -0.07878432 0.037858445 -0.048688073 -0.015250182 -0.021140365 0.056493063
-0.039873224 0.03273066 0.21648382 0.090015136 0.16582859 -0.12729453 0.081358165 -0.12383257
-0.09290845 0.053945653 0.024918526 0.055214018 -0.07867241 -0.1590106 -0.030577779 -0.122059554
-0.12149039 0.188585 0.11752451 0.006800755 0.058535106 0.10785386 -0.040525995 0.0894982
0.004076889 -0.21010555 0.2331008 0.14254443 -0.06419449 -0.13602938 0.12934227 0.0647684
0.01304843 -0.11825146 0.22051965 -0.024558805 -0.052092094 -0.020868417 0.10147386 -0.19031703
0.11719953 -0.10669595 -0.05894813 0.02500911 0.04632159 0.024842383 0.19093296 -0.017626856
-0.12632334 -0.059366796 -0.057361532 0.13740467 -0.27575296 0.11223953 -0.146832 0.109319665
0.1272885 0.011786784 -0.14943615 -0.10680834 -0.18869261 -0.039184015 0.13733158 0.28213856
-0.063060455 -0.29666597 -0.09114636 0.16814299 0.017005902 -0.1483955 -0.25537205 0.07126865
0.100982636 -0.16331357 -0.0890627 -0.13669626 0.046060696 -0.05484438 0.008775942 -0.1719069
0.08010834 -0.1792223 0.19488867 -0.048425555 0.017307347 0.07859377 -0.030899027 -0.07745036
-0.053380664 0.20573893 -0.16547932 0.054909047 -0.16436417 -0.025607012 0.13983512 0.19218692
0.04430961 -0.05490461 -0.13552947 0.009172414 -0.02516228 -0.09587942 -0.23460868 -0.09920506
-0.110037185 -0.106166646 0.064120345 0.061832823 0.07113419 -0.099346384 -0.09014901 0.06784015
00000000: a8f1 f6bd 66ba 373d 5f7d 213d 1a1c e93c
00000010: 47b2 b23d a9ea 023e fb96 de3d f875 c2bd
00000020: f1df 223e 3787 22bc b661 a4bd c79a d0bd
00000030: be1b e2bd 1242 8f3d ef0f a1bc c9e2 a1bd
00000040: ba81 e33d 27e2 f03d 8d3a 24bd a3bc 313d
00000050: 3430 3fbc 57b6 873d 1711 00be 67e0 d0bd
00000060: eab8 0cbe 8130 bf3d 5c6e 6d3b 575f 6c3c
00000070: 74e3 103e 123b e7bd 75f7 923d 7ee0 a83d
00000080: 2523 acbd c00d 5c3b e4c1 33be 3d02 debd
00000090: 144b bb3d 9e70 173d 0d9a 02be f6e3 e33d
000000a0: d8b8 263d fc1c 663c e242 103e 0647 a53d
000000b0: 17df 3d3e cebf 6f3e 0802 03be f070 b7bd
000000c0: 649c 543e 59b8 573d e186 5abe 2f88 e4bc
000000d0: 2e78 82bd 6b06 98bb eddb 343e 2802 55bb
000000e0: eb44 9b3d df07 193d fc5f e53d 6433 d9bd
000000f0: f7b7 8a3d 0bfb de3c db67 7e3c c208 073e
00000100: 171a a53c 408a d53d 9b3e 95bd 4c39 f73d
00000110: d143 e93d d944 463e 8006 bfbd 7709 79bd
00000120: 9de1 e33c db32 86bd a948 fc3c 0f15 dd3d
00000130: ccf5 26be 2644 3f3e 4334 573d 02bd 233d
00000140: 234e 1abe 3eeb d0bd 770a 8bbd 0624 e4bd
00000150: a203 bb3b 44dc 483e bded 68bd bce3 dc3d
00000160: fbd3 03be 301f 173e 9732 38be 95a1 f3bc
00000170: 26bf 033e 9972 583d 3ba0 b2bc e2a8 d73d
00000180: 094b 563d b547 373e fe58 063e 61a3 513d
00000190: a29f 143e eea0 7ebd a0ff 40bd 5b77 f13d
000001a0: 6232 0fbd d549 f6bd d15e eb3c 8721 d0bd
000001b0: 167e 343e 6075 23bd ddfa 1ebe d2b6 ce3c
000001c0: e119 bc3d e4ae dcbc 0a72 1d3d e368 e43c
000001d0: 3994 03be e741 173e 5d67 f3bd f1b6 b13d
000001e0: 0f16 c0bd f83d e53d 380d b8bc 76eb 143e
000001f0: 79ab 513e cb77 11be e0d1 563d 5a56 89bd
00000200: 2322 1ebe 07dc 243b e9ce 63bb 4f50 4a3d
00000210: 850c 8abd d66b 223e 147c 1c3d ea51 2e3e
00000220: 76f6 823c a270 8a3d ac59 a1bd 7511 1b3d
00000230: 256d 47bd e6db 79bc 8f2e adbc 4565 673d
00000240: 1b52 23bd 9610 063d efad 5d3e db59 b83d
00000250: f8ce 293e 7f59 02be 1c9f a63d ee9b fdbd
00000260: c946 bebd 1ef6 5c3d f021 cc3c 1828 623d
00000270: 001f a1bd add3 22be 407e fabc 5cfa f9bd
00000280: f4cf f8bd 6d1c 413e b1b0 f03d ded8 de3b
00000290: 82c2 6f3d 7ce2 dc3d 96fe 25bd d54a b73d
000002a0: 6c97 853b e925 57be fab1 6e3e 2bf7 113e
000002b0: 6778 83bd 494b 0bbe 4d72 043e 4ba5 843d
000002c0: 15c9 553c d22d f2bd e7cf 613e 8c2f c9bc
000002d0: 855e 55bd 3ef4 aabc 87d1 cf3d 78e2 42be
000002e0: 4f06 f03d 6883 dabd 9873 71bd e8df cc3c
000002f0: b5bb 3d3d 4182 cb3c ee83 433e 3266 90bc
00000300: e85a 01be 992a 73bd edf3 6abd cfb3 0c3e
00000310: 7e2f 8dbe d7dd e53d 215b 16be fde2 df3d
00000320: eb57 023e 5b1d 413c ca05 19be 55be dabd
00000330: a338 41be 6b7f 20bd a6a0 0c3e 7774 903e
00000340: d725 81bd 9ae4 97be f1aa babd ad2d 2c3e
00000350: f64f 8b3c fdf4 17be 20c0 82be 4cf5 913d
00000360: fccf ce3d ac3b 27be 8166 b6bd 1bfa 0bbe
00000370: 24aa 3c3d 80a4 60bd f8c8 0f3c 5d08 30be
00000380: d70f a43d 0d86 37be e590 473e e059 46bd
00000390: 23c8 8d3c c5f5 a03d f51f fdbc 4b9e 9ebd
000003a0: afa5 5abd 3aad 523e 6973 29be 4fe8 603d
000003b0: 154f 28be ccc5 d1bc f030 0f3e a6cc 443e
000003c0: fe7d 353d a8e3 60bd 3dc8 0abe e547 163c
000003d0: 2021 cebc 6e5c c4bd 423d 70be 062c cbbd
000003e0: 2d5b e1bd e66d d9bd 8751 833d 6a44 7d3d
000003f0: cdae 913d 1e76 cbbd 0ba0 b8bd c7ef 8a3d

bias_ih_l1 f4 [128]
-0.033028305 -0.0007250819 0.092693344 -0.053627897 0.13086013 -0.07648147 -0.08383476 0.075564615
-0.12469865 -0.19568387 -0.19941136 -0.0036609396 0.04720875 -0.12738001 0.16448496 -0.17291266
-0.21590026 -0.088556536 -0.11706323 -0.046553284 -0.045864165 -0.15272976 -0.20411803 -0.004057601
0.032358233 0.027064886 0.11928417 0.10662067 -0.034377515 -0.13986108 -0.20305479 0.13280898
0.12527023 0.20250131 0.007086155 -0.11870905 -0.015433156 0.11777138 -0.1237064 -0.13580956
-0.15896143 -0.09679848 -0.022127124 0.17299065 0.028788596 0.035055522 0.039658636 -0.15319619
-0.0597909 -0.04623506 0.15048394 -0.092843294 -0.1123524 0.010728308 0.051434897 -0.03327578
0.026235662 0.041062567 0.12295947 -0.07663518 -0.05724064 -0.12126881 0.12062808 -0.14632608
-0.1391476 0.11024752 0.05783765 -0.013581396 -0.060871363 -0.17304452 0.09160082 -0.10314316
0.035093658 -0.079885885 -0.00044230872 0.017928602 0.08106336 -0.15353717 -0.008230794 -0.1080847
0.10963329 -0.051264875 -0.16510227 -0.16412771 -0.06040038 -0.020470092 0.074984856 -0.09275197
0.067204066 0.12814495 -0.090832144 0.06611373 0.036706973 0.06480712 0.01698881 0.12074039
-0.007274582 0.021662667 0.047416482 0.10515644 0.0046468833 0.12524858 -0.32371342 0.08741598
-0.06543385 -0.015930539 -0.14928585 -0.14996475 -0.006390178 -0.08113301 0.036382355 -0.10892861
-0.06803872 -0.052222773 -0.09010022 -0.024484523 -0.104302846 -0.0049231485 0.06360322 0.14422128
-0.15072484 -0.10612945 -0.01355985 0.010565411 -0.25733283 0.06849647 -0.16932908 0.042832743
00000000: b048 07bd 6c13 3eba 02d6 bd3d eda8 5bbd
00000010: 3300 063e 51a2 9cbd 8fb1 abbd 9fc1 9a3d
00000020: 0162 ffbd 5a61 48be 7e32 4cbe 60ec 6fbb
00000030: f65d 413d e86f 02be bf6e 283e 0410 31be
00000040: f514 5dbe 215d b5bd d9be efbd a8ae 3ebd
00000050: 10dc 3bbd 3165 1cbe 5104 51be a0f5 84bb
00000060: 118a 043d 2eb7 dd3c 424b f43d f05b da3d
00000070: 70cf 0cbd be37 0fbe 98ed 4fbe 14ff 073e
00000080: d746 003e 815c 4f3e fa32 e83b bb1d f3bd
00000090: 59db 7cbc 1f32 f13d c859 fdbd a911 0bbe
000000a0: c9c6 22be 483e c6bd f143 b5bc 7624 313e
000000b0: 10d6 eb3c 6196 0f3d 1871 223d 76df 1cbe
000000c0: 4ee7 74bd f960 3dbd 7618 1a3e a024 bebd
000000d0: 0419 e6bd c9c5 2f3c 66ad 523d 2f4c 08bd
000000e0: 2cec d63c 3931 283d 2dd2 fb3d e8f2 9cbd
000000f0: 2975 6abd c85b f8bd db0b f73d 81d6 15be
00000100: b57c 0ebe 74c9 e13d 2ce7 6c3d 8184 5ebc
00000110: 4054 79bd 9532 31be 3699 bb3d b93c d3bd
00000120: 5ebe 0f3d 369b a3bd ace5 e7b9 01df 923c
00000130: 8c04 a63d d938 1dbe 74da 06bc 835b ddbd
00000140: 6b87 e03d 1efb 51bd 9210 29be 1811 28be
00000150: 6466 77bd e5b0 a7bc a991 993d bff4 bdbd
00000160: 49a2 893d 6e38 033e 3406 babd a366 873d
00000170: 0d5a 163d 98b9 843d 1e2c 8b3c bd46 f73d
00000180: 9e5f eebb e875 b13c c937 423d 425c d73d
00000190: e244 983b 2a41 003e c4bd a5be 2607 b33d
000001a0: 2f02 86bd c380 82bc 64de 18be 5c90 19be
000001b0: b364 d1bb 1029 a6bd aa05 153d f715 dfbd
000001c0: e257 8bbd 8ce7 55bd 7786 b8bd c493 c8bc
000001d0: bb9c d5bd 5d52 a1bb 6842 823d beae 133e
000001e0: 9d57 1abe 665a d9bd 222a 5ebc 8c1a 2d3c
000001f0: 21c1 83be e147 8c3d 9a64 2dbe 6371 2f3d

bias_hh_l1 f4 [128]
0.04901405 -0.13233368 0.114920795 -0.14730234 -0.026232092 0.19073197 -0.31245974 -0.20367776
-0.1890779 -0.10283447 -0.1780562 -0.09511508 -0.08704454 -0.16671196 0.09743859 -0.20530502
0.08983503 -0.07571769 -0.06883579 0.04600795 -0.07740031 -0.016338676 0.07463613 0.07581625
-0.1528526 -0.067194514 0.03898951 -0.04495223 -0.050355483 -0.18583009 -0.039593037 0.12524803
0.014925408 -0.0049237753 0.04966661 0.00513601 -0.04682043 -0.11585038 -0.19213575 -0.055510335
-0.321909 0.0061743977 -0.10463817 0.13745838 -0.18075395 0.081802376 -0.13824452 -0.20727247
-0.23765337 0.056146752 -0.07217683 -0.14729737 -0.16425394 -0.20323595 0.056516908 0.116000146
-0.1447964 -0.18413642 0.102574885 -0.0805771 -0.26169974 0.0147505365 -0.20392855 -0.13608007
-0.037267737 0.059484325 -0.13968931 -0.10923376 0.16080417 0.016712993 -0.027465826 0.0005179802
-0.08026236 0.049480937 0.09556643 -0.17616096 -0.05745809 0.13371103 -0.113251135 -0.09089156
0.08947516 0.14450201 0.101535425 0.0847602 0.0066328747 0.084355235 0.037880354 -0.11305618
-0.083140925 0.103678964 0.008638564 0.030365014 -0.2035433 -0.14761852 0.012136534 0.09956598
0.0050834813 0.16292259 -0.06397554 -0.0065440717 -0.102720365 -0.12354011 -0.089140825 -0.0021694114
-0.20246932 -0.052903317 -0.19499657 0.0035249395 -0.045186218 -0.05618218 0.027992334 -0.1324022
-0.13931699 -0.12851736 0.007121312 -0.020398585 -0.19555213 -0.2210516 -0.1681082 0.08216908
-0.16350766 0.022884453 0.041398775 0.07893181 -0.26957956 0.101835296 -0.12200692 0.12002288
00000000: f5c2 483d 7b82 07be 985b eb3d 6dd6 16be
00000010: afe4 d6bc 3e4f 433e b9fa 9fbe e790 50be
00000020: a39d 41be e19a d2bd 5d54 36be b2cb c2bd
00000030: 6844 b2bd 8ab6 2abe e28d c73d 7b3b 52be
00000040: 6efb b73d e011 9bbd c7f9 8cbd d572 3c3d
00000050: 0e84 9ebd b0d8 85bc d4da 983d 8d45 9b3d
00000060: 6485 1cbe 479d 89bd 77b3 1f3d d41f 38bd
00000070: 8d41 4ebd 3e4a 3ebe 4f2c 22bd 0541 003e
00000080: b389 743c 9f57 a1bb 376f 4b3d f94b a83b
00000090: c7c6 3fbd f742 edbd 3cbf 44be ce5e 63bd
000000a0: 42d1 a4be 9a52 ca3b 894c d6bd e4c1 0c3e
000000b0: 9017 39be 0188 a73d f98f 0dbe 3c3f 54be
000000c0: 685b 73be 23fa 653d 72d1 93bd 1fd5 16be
000000d0: 2f32 28be 161d 50be 467e 673d 7c91 ed3d
000000e0: 8245 14be 428e 3cbe c812 d23d 9b05 a5bd
000000f0: 82fd 85be 3cac 713c a5d2 50be 9358 0bbe
00000100: 0ea6 18bd d6a5 733d b70a 0fbe f3b5 dfbd
00000110: d9a9 243e b0e9 883c 0300 e1bc 10c9 073a
00000120: 9860 a4bd 86ac 4a3d 55b8 c33d 8a63 34be
00000130: 2d59 6bbd 8beb 083e 36f0 e7bd 5b25 babd
00000140: c13e b73d 56f8 133e cef1 cf3d c196 ad3d
00000150: 9658 d93b 70c2 ac3d 6e28 1b3d 008a e7bd
00000160: ca45 aabd a355 d43d c388 0d3c 0dc0 f83c
00000170: a86d 50be 4f29 17be 50d8 463c 40e9 cb3d
00000180: 5593 a63b 2ed5 263e 9c05 83bd a76f d6bb
00000190: 0e5f d2bd 9902 fdbd 778f b6bd af2c 0ebb
000001a0: 1e54 4fbe 26b1 58bd 2ead 47be ac02 673b
000001b0: 2f15 39bd 491f 66bd 2e50 e53c 7194 07be
000001c0: 1da9 0ebe 0e9a 03be e559 e93b ef1a a7bc
000001d0: d13e 48be 5a5b 62be 8e24 2cbe 4348 a83d
000001e0: 8d6e 27be 2d78 bb3c c391 293d 00a7 a13d
000001f0: 5506 8abe 068f d03d c4de f9bd 8ece f53d

weight f4 [1, 32]
-0.21068485 0.21127295 -0.095087975 -0.18047512 -0.1709477 0.20639358 -0.045655157 -0.029249633
0.07980534 -0.031574897 -0.03693402 -0.10601355 0.014360314 -0.16185886 -0.16144495 0.14285274
-0.07476143 -0.15610905 -0.06864108 -0.14942163 0.008494867 -0.14233255 0.035272088 0.1745084
0.07985288 -0.16402075 -0.18907453 -0.05918793 0.07606624 -0.0880878 -0.110894404 -0.17039639
00000000: c5bd 57be f057 583e 7cbd c2bd 78ce 38be
00000010: ea0c 2fbe d758 533e e700 3bbd ed9c efbc
00000020: fb70 a33d ae54 01bd 2148 17bd a21d d9bd
00000030: 8647 6b3c 54be 25be d351 25be fd47 123e
00000040: 851c 99bd 0ddb 1fbe b293 8cbd fc01 19be
00000050: 0e2e 0b3c a0bf 11be 7779 103d 54b2 323e
00000060: e889 a33d 0ef5 27be c19c 41be 0b6f 72bd
00000070: 9ec8 9b3d 6067 b4bd 9b1c e3bd 647c 2ebe
