lstm_strat/lstm_model.pt (torch, 61462 bytes, 9 tensors)

weight_ih_l0 f4 [128, 1]
00000000: d97a 5bbe db0c adbd f8e0 56bd 6972 13be
00000010: 3e4b 10bd 01f3 65be 1bce 873d 872b 1b3d
00000020: 970c 043e 45dc e4bc 1109 853e 1da6 1f3d
00000030: d111 c93d eb31 51bd 8f46 773e f340 51bd
00000040: 59d0 9f3d 8986 47bd 9872 fabd ece3 74bd
00000050: dc2e 6cbd 7dad 423e 528e fe3d 6012 153e
00000060: d6b1 e63d ab58 09bd 88a4 f53d 4f0a 3c3e
00000070: a1da 153e cd65 f5bd 2080 6c3e 6b8d 503e
00000080: cea0 a9be 33af c8be 0be2 0dbd fd7f 02be
00000090: afe4 c8bd b3f7 1abe ceff 70be 4107 593e
000000a0: 26eb 0ebd feee 893d 116a 783e 91ac 043d
000000b0: a2e2 3b3e f922 193e ade1 8abd 9e17 803d
000000c0: 55ec a83d f449 953e 8b8f 80be fb1b 543e
000000d0: 29ad b93d a48e 853e 9c09 7c3d 5869 f23b
000000e0: b372 a93d c9b2 a2be f747 8b3b 76a6 1d3e
000000f0: 39ee 383b 37ce c6bd 93d3 33bd 8c49 0bbd
00000100: a413 443e 7d7e 58be 0605 11be 3e0a 44be
00000110: c4a5 253e 67cc 08be 467f 79bd 03c5 48bc
00000120: b4f5 de3c b0be 503e 310f 7b3e cc2f 79be
00000130: f748 91be c107 633e 188b ddbb e51a 643e
00000140: b9f3 0abe ecb4 6fbe eca3 8cbd 62b8 5e3e
00000150: af1f 0abe 64d5 83be ea15 603e aa39 8ebe
00000160: 48f5 453e d242 7b3e 7ea4 8f3d 76e4 763e
00000170: d339 c4bd 12b4 2c3e 331f 8b3e 0f45 733e
00000180: 0006 b1be bede 03be 8ca4 843e 9a2a 093e
00000190: ab4c 013d 86cd 9e3b 1999 7d3d e76f 0cbd
000001a0: 2312 193c 02ff 70bd fea2 0e3e e8f9 82be
000001b0: fd95 edbd c804 99bd 35ca 1f3e 5740 7e3e
000001c0: 4a6d 9dbd 7a55 583e 0c2f a0be 9cd0 323e
000001d0: 3c3b 9fbd 1090 873d 6010 353b b659 da3d
000001e0: e3c6 dcbc 3060 59be 38ab bd3d 45ce cfbc
000001f0: c30b 5e3e 0d7f 7ebd b946 eabc 4b72 57bd
-0.21433581 -0.084497176 -0.05246064 -0.14399113 -0.035228007 -0.2245598 0.066311084 0.037883308
0.12895428 -0.027937064 0.2598348 0.038976777 0.09817851 -0.051072996 0.2414801 -0.05108733
0.07803411 -0.048712287 -0.12228888 -0.059787676 -0.057661876 0.19011493 0.12429489 0.14557791
0.11264388 -0.033531826 0.119942725 0.18363307 0.14634182 -0.119823076 0.23095751 0.20366447
-0.33130497 -0.39196166 -0.0346394 -0.12744136 -0.09809243 -0.15133552 -0.23535082 0.21194173
-0.034892224 0.06735037 0.24259211 0.032391135 0.18348172 0.14954747 -0.067813255 0.062545046
0.08248202 0.29157984 -0.25109515 0.20713799 0.09066231 0.2608539 0.0615326 0.007397812
0.0827383 -0.31777027 0.0042505222 0.15395531 0.0028218164 -0.09707301 -0.043902945 -0.034005687
0.19148117 -0.21142001 -0.14162073 -0.19144532 0.16176516 -0.13359223 -0.060912393 -0.0122540025
0.02721677 0.20385242 0.24517514 -0.2433464 -0.2837598 0.22170927 -0.006760966 0.22275884
-0.13569535 -0.2340886 -0.06867203 0.21750024 -0.13488649 -0.25748742 0.2188336 -0.2777837
0.19331849 0.24537209 0.07013796 0.24110588 -0.095813416 0.16865566 0.2717224 0.23756813
-0.3457489 -0.12877938 0.2590679 0.13395157 0.031567257 0.0048462776 0.061913583 -0.034286406
0.009342703 -0.058836944 0.13929364 -0.25581288 -0.116008736 -0.07471615 0.1560448 0.24829231
-0.07686861 0.21126357 -0.31285894 0.1746239 -0.0777497 0.066192746 0.0027628168 0.10661642
-0.026950305 -0.21228099 0.09261173 -0.025366912 0.21684174 -0.062132884 -0.028598176 -0.052599233

weight_hh_l0 f4 [128, 32]
00000000: ab00 09be 9a44 1abd 6081 983d 4ae7 b93d
00000010: 9dd5 2ebe 8d03 0ebe e8d9 71bd 77c2 aabd
00000020: 6f96 963b 5316 a8bd 5314 16be b04b c6bd
00000030: d97f 283e cc28 e4bd ac79 673d 0a85 033d
00000040: 0702 0ebe 997b 133e 8d33 09be df2c fabd
00000050: 9cc5 753d 085c 08be 6fc9 a8be 3e4d 023c
00000060: dd3a d5bd 736f 3cbc d348 cabd dc99 a9be
00000070: c2ed 10bb d466 b1bd 8a74 24be df6f 7bbe
00000080: 3b6a fa3d 1648 453e f84b a23d 5577 ecbc
00000090: e584 a13c 06d2 08bb 01cc 1d3e fab0 22be
000000a0: 56f4 083d 3808 b53c ea3c 01bb 1f80 ef3c
000000b0: 5284 4f3e 0e9a 11bd e784 1dbd efd8 14be
000000c0: 92e1 d03d 2c0b 78bb 94ca 243d 1a54 95be
000000d0: 252c 723e 2b1e 7c3d 616d 78be cf7b 5d3d
000000e0: b333 51be 090d 10be 9ca9 c63d 10fb 5cbe
000000f0: 986f 22bb 3814 963d 262a 2bbe 0f09 4bbe
00000100: 5382 363b 2f98 783c 9239 f23c 42a2 463d
00000110: 9451 d13c eef0 4fbd 1d74 80bc f6c9 4e3e
00000120: 6a9d 27be adfc fe3d d20e b23d 03f8 44be
00000130: a6b1 cf3d 4d7e 333e 3598 833d e46a 973c
00000140: 7e14 6ebe cd31 a73d b1da 593e 0c7c 4c3e
00000150: 29c6 cc3d dd68 12be b919 573e bbd8 4c3d
00000160: 4a0c c03d ac22 3e3e ef0b 993d 3741 123e
00000170: 3663 9ebb 333c e93b fa2f 423c a782 11bc
00000180: 0014 95bd 7bca 2bbd d734 273e fe22 69bd
00000190: 6c15 0e3c 1a07 9b3d 74e6 d0bd 2f98 e83d
000001a0: 7f4e 94bd f1d7 12be fee9 e8bd c105 fbbd
000001b0: 4150 f23d 0d3a b1bd 13bc 3abe 6d41 a13c
000001c0: 6cc0 e5bb 58b9 f1bd ae79 de3d 3f14 e2bd
000001d0: 78de b93d 7caf 1c3e e7b6 143d f6c1 99bd
000001e0: 3831 263d 3dd1 5bbc baf2 22bd b11c 2fbe
000001f0: e3bc bfbc 557e 143e 2758 74bd 8a20 893d
00000200: bfc6 5f3d 5984 13be 0e71 d9bd 87fd b03d
00000210: 23dc 933d 3821 65be 5bd7 883d 0e7f b53d
00000220: 1697 c0bd d61d 143e c631 0d3d cab8 6b3d
00000230: 3894 26bd 3667 26be bceb 94bd b475 40bd
00000240: acb2 34be fec6 ef3d 08f5 f4bd 7e9c 63bd
00000250: da47 11bd 393e 45bd 1a92 85bd 0cf9 9e3d
00000260: c3a7 d2bd d96b d7bd 17f3 093e e797 b8bc
00000270: 051e c5bd 431b f9bd 4283 1dbe 707f 5c3d
00000280: 75b4 cabc b0d1 be3d e8f6 4b3c 21c3 063e
00000290: 59fb 2e3e 2988 75be 6c3b 403d 81a8 a43d
000002a0: 6c0d b2bd d9ec 8e3d 0728 03be 7042 84bd
000002b0: f1e8 c43d 7bb0 fdbd 052f 0bbe d204 e03d
000002c0: 09fa fa3d ce86 bebd 7304 843d 0504 4b3d
000002d0: e409 813c dbbf ccba a8d6 89bc 0ef1 903b
000002e0: 3644 d83c e11e 9fbd 354b dd3d e473 e03d
000002f0: 5957 b83d ee72 fb3d 21c7 543d 31b1 a63d
00000300: 96d9 a33d 28c6 7bbe 2c6d 833e 53c6 b43d
00000310: c97d 40bd 5ea3 19be 86e7 9b3d 719f dcbc
00000320: 0853 2f3e de28 00be f074 54be 552c 3ebe
00000330: f628 52be 532e aabe 0da6 3cbe 2d7f fdbd
00000340: 1213 303d c745 8a3c 0d8d 823d 02fb 03be
00000350: f201 453e 9a7f 663d 0344 30be 1746 213e
00000360: 5f94 9abd 9347 033e ddc5 b7bc 6697 38be
00000370: 8d03 5b3e f0f5 99bd c6b5 e5bd e41d 68be
00000380: 6ff7 1b3e 5525 e3bd c5c5 4f3e 348e 23be
00000390: f39b 073e e584 663d 784d 3b3e aa11 0e3e
000003a0: 7a3b 6ebd 56d4 0e3e f4a9 803d 5a59 54bd
000003b0: b5d1 69be 4990 ecbc 287f 1bbe 71ae 2abe
000003c0: e0d9 22be dabf 193e 98f7 f8bb 3c84 233d
000003d0: bf6f 2d3d 42d9 2a3e fd40 91bd 06b9 ec3c
000003e0: 593a 22bd 7eae 6c3e 3def 453e d24e 173e
000003f0: 879d 6cbc 84e0 85ba 3c25 fe3c bbf8 8d3b
-0.13379161 -0.03766308 0.07446551 0.09077318 -0.17073674 -0.13868542 -0.059045702 -0.083378725
0.00459557 -0.08207383 -0.1465619 -0.09682405 0.1645502 -0.11140594 0.05651252 0.032109298
-0.13867961 0.14402618 -0.13398571 -0.1221559 0.060002908 -0.13316357 -0.32966182 0.007952986
-0.10411618 -0.011501181 -0.09877171 -0.33125198 -0.002211437 -0.08662191 -0.16060081 -0.24554394
0.12227293 0.1926578 0.07924646 -0.028865496 0.01971669 -0.0020877137 0.15409853 -0.15887824
0.033436142 0.022098646 -0.0019720146 0.029235898 0.2026532 -0.03554731 -0.038456824 -0.14535879
0.10199274 -0.0037848456 0.040232256 -0.29165727 0.23649652 0.061552208 -0.24260475 0.05407315
-0.20429878 -0.14067473 0.09700319 -0.21580148 -0.0024785753 0.07328075 -0.16715297 -0.19827674
0.0027848675 0.015173002 0.029568467 0.048494585 0.025551595 -0.050766878 -0.015680367 0.2019423
-0.16368642 0.12450538 0.08694233 -0.19235234 0.101413056 0.17528649 0.064255156 0.018483587
-0.23250005 0.081637956 0.2127483 0.19969195 0.099987336 -0.14297815 0.21005906 0.050011378
0.09377344 0.18567914 0.07472979 0.1428269 -0.004833604 0.007117772 0.011852259 -0.008881248
-0.07279205 -0.041941147 0.1632875 -0.056918137 0.0086721 0.07569714 -0.102002054 0.11357152
-0.072415344 -0.14340188 -0.113727555 -0.12256957 0.118317135 -0.086536504 -0.18235807 0.019684518
-0.007011464 -0.1180293 0.10863052 -0.11039018 0.09075636 0.15301317 0.03630724 -0.07507698
0.040574282 -0.0134165855 -0.039782263 -0.17100789 -0.023405498 0.14501317 -0.05965438 0.066956595
0.0546329 -0.14405955 -0.106172666 0.086421065 0.07219722 -0.22375953 0.06681701 0.088621244
-0.09403817 0.14464507 0.034471296 0.057549275 -0.040668696 -0.1625031 -0.07271525 -0.04698725
-0.17646283 0.117078766 -0.119607985 -0.055569164 -0.035468914 -0.048155043 -0.06522007 0.07762346
-0.10285904 -0.10518617 0.13471638 -0.02253337 -0.096248664 -0.12163403 -0.15382102 0.05383247
-0.024744252 0.093173385 0.012449004 0.13160373 0.17088069 -0.23977722 0.04693167 0.08039952
-0.08693966 0.06978769 -0.12808238 -0.064579844 0.096147425 -0.123871766 -0.13592155 0.109384194
0.12254722 -0.09303056 0.06446161 0.04956438 0.015751787 -0.0015621142 -0.016825989 0.004423267
0.026399713 -0.077695616 0.1080536 0.109596044 0.09001035 0.122777805 0.051947717 0.08139265
0.080004856 -0.2458731 0.2566923 0.0882689 -0.046994958 -0.15003726 0.07612519 -0.026931496
0.17121518 -0.1251559 -0.20747733 -0.18571599 -0.20523438 -0.33238468 -0.18422718 -0.123777725
0.042986937 0.016878976 0.063745596 -0.1288872 0.19239023 0.056274034 -0.17213444 0.15749393
-0.07547831 0.12820272 -0.022433216 -0.18026504 0.21388073 -0.07517612 -0.11216311 -0.22667652
0.15231107 -0.11091105 0.20290287 -0.15972215 0.13243084 0.05627908 0.1829127 0.13873926
-0.05816219 0.13948187 0.06282416 -0.051843025 -0.22833903 -0.028877394 -0.15185225 -0.16668107
-0.15903425 0.15014592 -0.007597875 0.03992103 0.042342898 0.1668444 -0.07092474 0.02889682
-0.039606426 0.23113438 0.19329543 0.14776161 -0.014441854 -0.0010214006 0.031023614 0.0043326295

bias_ih_l0 f4 [128]
00000000: 8f97 783d 2086 d3bd 903d f6bd c991 46bd
00000010: 0b3e 04be 1b67 f53c 93a3 6abe ae1b 42bd
00000020: 9209 e3bc 1b0a 813a 401d 1ebe 245a 80bd
00000030: 528b 1f3e 906f 0d3d 5ecb 44bd aab6 fbbd
00000040: c64e 28be 8252 2d3e 13c7 4fba e984 9fbd
00000050: 2633 043e a9c0 3cbe 83e3 163e 486f f73d
00000060: 4fed e7bd e414 1d3d c7a5 57be 8ccd 0e3e
00000070: bad0 1fbe 01d5 083e 87a8 c73d 771a eabd
00000080: 4b29 13be 3afc 3abe 4520 0a3e 6584 4bbe
00000090: a3a4 983c f8e5 963d 8c60 16be 387a f13a
000000a0: 39b7 09bd 5ec9 653e 8fcb cb3d bfc8 f4bd
000000b0: 770a 2e3e fb31 3c3e 6547 34be b5e1 13bd
000000c0: f05f 8a3d f0e4 373c 0353 07be 8fd8 c13d
000000d0: e3d6 cfbd 3dd5 5b3d 8931 3a3e a06d f9bd
000000e0: 7c10 e3bc 70ce 1abb dcaf 54be d7c0 c6bd
000000f0: 7f7b b73b 114e 4dbe 6036 8d3d 4622 6bbd
00000100: e725 49be 38f8 243e 3b30 7c3c f253 973d
00000110: 8bed 0cbc 7f19 f33d 3fa5 83bd ae6a 2cbd
00000120: 406c 2a3d 5280 14be b42f 9fbc db79 f03d
00000130: 461a 6b3d a603 c63c 304e 06bc 44a4 dab9
00000140: 3b5d 8cbc 7d05 a4ba 92db d5bd bf92 4b3c
00000150: 3d5b b63c 3aef 8bbd 5c06 04be d071 083e
00000160: 28c1 ef3d b04b ee3c 18b9 07bd 3d4c 223d
00000170: d12a b8bd a6d3 b2bc 3b44 483d f5b7 023c
00000180: 3c54 e83a 03fb 293c 1af4 15be 3f02 38be
00000190: f862 dd3d 3360 53bd 4860 49be 04e5 71bd
000001a0: 6084 f6bd 474d eebd 5d79 e7bd df55 fe3d
000001b0: 07b1 863d 7cf3 343e 6520 e6bd 1830 15bd
000001c0: 98d5 b23b e28e 2c3d 8f78 7e3c af51 413e
000001d0: 8dad 04be af15 fc3c d068 e03d ee33 edbd
000001e0: 7cab f9bc 3890 f53d 52fd b9bd f2bd acbc
000001f0: c813 a03d c09b 4c3d a229 313d 8316 54bd
0.060691413 -0.10328317 -0.12023461 -0.048478875 -0.12914293 0.029956391 -0.22913961 -0.04738968
-0.027714524 0.0009844931 -0.15440845 -0.06267193 0.1558049 0.034530222 -0.04804551 -0.122907
-0.164363 0.16926005 -0.0007926088 -0.077890225 0.12910137 -0.18432869 0.14735226 0.12081772
-0.1132456 0.03835 -0.21059333 0.13945597 -0.15606967 0.13362505 0.09748941 -0.11430829
-0.14371221 -0.1826028 0.13488872 -0.19874723 0.018633192 0.07368082 -0.14685267 0.0018423265
-0.033622 0.22440097 0.09950935 -0.11952352 0.1699618 0.18378441 -0.1760536 -0.036103923
0.0675658 0.011224017 -0.1321526 0.094651334 -0.10148408 0.053670157 0.18182959 -0.121791124
-0.027717821 -0.0023621581 -0.2077021 -0.0970475 0.0055994387 -0.20049311 0.06895137 -0.057405733
-0.19643365 0.16110313 0.015392358 0.07389058 -0.0086015565 0.11870097 -0.064280026 -0.042093925
0.04160714 -0.14502075 -0.019431926 0.11741992 0.057398103 0.024171662 -0.008197352 -0.00041702588
-0.0171343 -0.0012513843 -0.1044227 0.012425124 0.022260303 -0.06832738 -0.12893051 0.13324666
0.117067635 0.029088825 -0.033135504 0.039623488 -0.089925416 -0.021829437 0.048893195 0.007978429
0.0017725299 0.010374787 -0.14643899 -0.17969607 0.108098924 -0.051605415 -0.19665635 -0.059056297
-0.12036967 -0.11635833 -0.11302445 0.12418722 0.06576734 0.17671007 -0.112366475 -0.03642282
0.0054575913 0.04212845 0.015531673 0.18878816 -0.1295683 0.030772058 0.109574914 -0.115821704
-0.030477278 0.11990398 -0.0908152 -0.021086667 0.07816273 0.049953222 0.043252595 -0.05177928

bias_hh_l0 f4 [128]
00000000: 925a b1bd ef50 c03d 2801 b23d 86a8 923d
00000010: e10a 46bd a125 51be be35 8dbe 3218 1d3d
00000020: 8c5e 00be bc4d 59bd 4402 013e a3c5 18be
00000030: 2514 3abd 0829 c53d ef80 113b e3af 9dbd
00000040: b2a6 e8bd 9ce8 34bd c910 0dbe ce96 c93c
00000050: 67b7 223d bfa5 963d 4979 e13c f7fe 1d3d
00000060: 0845 08bd 761f 4d3e 99cb 83bc 776a 21bd
00000070: 3a71 143e fe56 20bd 29e1 82bd 94a5 e53d
00000080: 44d8 223c 2a2d 183e 2404 1cbe 8a41 5b3d
00000090: a075 c03d ebb3 5cbe 9d85 b9bd ed5b 9a3d
000000a0: 00c7 7cbe b901 1ebd 9ea4 a5bb 7332 a2bd
000000b0: 3ddf 47bd 5ae3 0bbe 6d57 33be 97ac 063e
000000c0: 0911 b1bc b5a0 f23c 413a c73d f81b a3bb
000000d0: 4f00 04bd c962 16be 7d26 433e 8154 8abd
000000e0: 2faa 1e3e 76e1 243c efea a93c 934a 013e
000000f0: e031 313d 2906 f23d 03f6 b8bd 67bc 113e
00000100: fe40 cc3d 649d d8bc 1e5e 86bd 007e a6bd
00000110: 2202 f8bd 089f e0bc a1e9 97bc 68d9 e2bd
00000120: e6cb c1bd c125 f53d b719 9a3d 4cc0 86bd
00000130: b6e8 843d bd56 0e3e b007 e03d a3e1 3d3d
00000140: 141b b7bd a267 7bbd 9c87 1c3e 67d6 9c3c
00000150: cd2f d0bd 78d1 81bd 8fa3 083e a66d 0cbe
00000160: fcf0 b8bd 2c7d 12be bb9b b5bc e4a7 853a
00000170: 909b d33d a689 c3bd 6dc5 1d3d 7420 87bd
00000180: ad9d 15be 53ab 14be 7408 b83d ae74 01be
00000190: 35dd d0ba b00b 95bb de9e 32be 28f6 2abe
000001a0: 9205 5dbe d2a4 b63d 5ab1 91bd 826d 5ebd
000001b0: 1c98 263e 9db6 e43d 390c 02be 6ec4 c03d
000001c0: 7d92 36be 68b8 2e3d 1629 40be 9f38 90bd
000001d0: 03f9 2dbe be53 d13d 2a10 8f3d 9013 93bd
000001e0: fa01 28bd 6b73 5b3e 0155 7cbe b4f4 ed3d
000001f0: d43d 7ebd 21ee 183d cf76 183e 33b0 633d
-0.08659853 0.09390437 0.08691627 0.071610495 -0.04835022 -0.2042451 -0.27580065 0.038353153
-0.12536067 -0.05305265 0.1259852 -0.14919142 -0.045429368 0.09626967 0.0022202095 -0.07699563
-0.113599196 -0.044167146 -0.13775934 0.024608042 0.039725687 0.07355832 0.027523654 0.03857323
-0.03326896 0.20031533 -0.016088294 -0.039408173 0.14496318 -0.039145462 -0.06390602 0.11213222
0.009939257 0.14860979 -0.15235955 0.0535293 0.09397435 -0.21553008 -0.09058688 0.07537065
-0.24685287 -0.03857586 -0.0050550243 -0.07919779 -0.04879688 -0.13660946 -0.17513819 0.13151775
-0.021614568 0.029617647 0.09727908 -0.0049776994 -0.032226857 -0.14686121 0.19057651 -0.06754399
0.15494607 0.01006352 0.020741908 0.12626104 0.043260455 0.11817581 -0.09031298 0.14232026
0.09973334 -0.026442237 -0.0656092 -0.08129501 -0.12109782 -0.027419582 -0.01854402 -0.11076623
-0.09462719 0.119700916 0.07524436 -0.065796465 0.064896986 0.13900276 0.10938966 0.046357762
-0.089407116 -0.06137813 0.15286106 0.019145204 -0.10165367 -0.06338781 0.13343643 -0.13713703
-0.09030339 -0.14305562 -0.022168985 0.001019713 0.103324056 -0.09547739 0.038518358 -0.06597987
-0.1461093 -0.1451848 0.08985987 -0.12642166 -0.0015935065 -0.0045485124 -0.17443416 -0.16695464
-0.21584156 0.08918156 -0.07113905 -0.054303654 0.16268963 0.11167643 -0.12699975 0.09412466
-0.17829318 0.042656332 -0.18765673 -0.070420496 -0.16989522 0.10221051 0.06985505 -0.071814656
-0.04101751 0.21430747 -0.24641801 0.11618939 -0.062070683 0.037336472 0.14889072 0.05558796

weight_ih_l1 f4 [128, 32]
00000000: 684e c9bc 755d 87bd f79a 44be 1db2 183d
00000010: 7029 243e 7b6e 23be adf6 fbbc 6fdf eebc
00000020: 8502 143e 2b3b 6b3e b689 a3bb faf0 9ebd
00000030: 11d9 7fbe c23e 963d 79be 413d 55d3 b83d
00000040: 00fe 97bc cb86 4dbe 8c74 403d 8365 90bd
00000050: 978d 50bb e533 49bd a730 853d 4b46 633d
00000060: e811 acbd ad7b f9bd 7fda 6cbd e91d 8a3d
00000070: a7ba c3bd b0f1 3a3e 725e 70bc 9e18 533e
00000080: 3755 38bd 5482 473e 389e cb3d e9ff 453e
00000090: dd93 2b3d 1342 083d 894f c9bd 3765 483e
000000a0: b106 413e 60fb 6bbd 7035 abbc f91a 4b3e
000000b0: 7f0d a13e 061e 86bc dd22 c6bd c5ce 5ebe
000000c0: dc34 963d 8f84 cf3b 2dd0 013d b5ac 0dbe
000000d0: e570 263c 0362 98bd 0ec1 90be d195 de3b
000000e0: dd76 87be 188d cdbd 7dc6 efbc 83e7 f6bd
000000f0: 1562 473d f485 3cbe 63c2 6fbe 15d0 63be
00000100: 020e 0b3d d601 80bd 32aa 87bd 5d40 22bd
00000110: 8b96 b0bd cff6 97bd 76cc d5bd ad4e f6bc
00000120: b1d0 37bd 4fa7 783e 02bc 693e f6b8 5abe
00000130: 0e95 8ebe 43e8 b1bd e22a 85bd a419 b73d
00000140: 8ea8 003d 9da8 26be a0e0 373e dddd 213e
00000150: 9e05 dd3b 8b2f 0d3d 1f3c 9bbd 4556 bcbd
00000160: e4e1 89bd 6429 bf39 384b 24bd 72ce 13bb
00000170: 29d3 7abd 7119 4f3e a2cf 873e 4f2e 1c3e
00000180: 35a5 1d3e d720 7ebd a948 1bbd faad 323e
00000190: 76f8 1e3c 008e 53bd e582 053e f1c8 19bc
000001a0: b6e1 cb3d 1b1c 02be 3ba9 3dbe 179d 1b3e
000001b0: 47d6 07bd eafb 34bb f663 8f3d 9832 37bd
000001c0: 9916 933d eda1 9d3d 7e8d 513d 5ef2 cc3d
000001d0: d731 3e3e f3ae 283e d0f4 cfbd dea3 123e
000001e0: 87e5 213d ca00 9abb 6f7b 9fbd fc20 24be
000001f0: 7665 e03d 4cc3 72be 91db 8fbb 84da 27be
00000200: 7daa 2e3e 3f8a 853d b7d7 4fbe 312b 8abd
00000210: 163e 45bd 8648 8c3c a637 d43d d15f c9bd
00000220: 65f9 8abd 1809 533e a7c2 35bd d334 d53c
00000230: f942 88be dfba f3bb 3215 173d 5452 04bd
00000240: 2324 333d fb14 253c e782 803d 1a99 ba3d
00000250: 1be5 8d3d 810f 1dbd cf5e a8bc 8030 aabd
00000260: ed24 da3d 7ff5 3b3e 7737 873c 81e7 213c
00000270: d290 d93d 7dbe e63d dd27 843d 81bb 333a
00000280: ee94 1a3d f288 163d 35a4 ff3d 1322 453e
00000290: 953c 463e 1a76 06be 418f 273e 1477 ab3d
000002a0: 43ba 40bd 4ef2 4fbe 92f9 1dbe 7a26 d43b
000002b0: 0115 253e 3858 22be 782d 57bd 87e1 10be
000002c0: 7846 283e e17d 563c fe96 1ebe 73c8 48be
000002d0: d231 803b 2869 8ebc e2b5 3cbd 95f6 3c3e
000002e0: fc55 0dbe 7556 f73c 1d98 90bc b609 c0bd
000002f0: ff86 033e 58bb 4f3d 2a59 0bbe f52c 893b
00000300: ae35 203e a4d4 b93d c2e0 25be bec4 203d
00000310: 9ee9 05bd 858a 4dbc 50f7 823d 3789 0a3e
00000320: 2101 0b3d 91ec be3c b8ef 5ebd afe5 853d
00000330: 037c 453d 4e4b 513e 7fc5 bd3d 3b92 f13d
00000340: 02a8 2cbe 96d4 6dbe ccb8 c23d 8407 873e
00000350: 8122 93bd 005c 51be 9fc3 893d 5283 13be
00000360: 6442 1e3e d619 be3c e1cf e93c 0a53 64bc
00000370: efcd cf3d a94f 143d 81be aa3d 2021 943e
00000380: d082 e23d f3e3 243d 7eda 73bd ec94 743c
00000390: 3ff8 aebd 11a6 453b 4e4d 33bd df61 303e
000003a0: 8173 063e 4a95 033d 29ec 343e a5bf acbd
000003b0: 85ba 63be d887 593e 0115 003d 2b40 073e
000003c0: 57ac c0bc 0264 5abe 1c56 a63e 3ce2 8f3e
000003d0: 9110 9fbc 50f9 aabd c97b 103e ab27 a3bc
000003e0: 9cf2 c13c ef0d 82bc b258 113d 3b31 543d
000003f0: 5ba2 f4bd 0ee8 2a3e b49b 123e fee8 1c3d
-0.02457352 -0.066096224 -0.1919974 0.037279237 0.16031432 -0.15960114 -0.030757273 -0.029159276
0.14454086 0.2297179 -0.0049907817 -0.077608064 -0.24985148 0.07336189 0.04730079 0.090246834
-0.018553734 -0.2007095 0.046986148 -0.07050612 -0.0031822675 -0.049121756 0.0650342 0.05548696
-0.08401853 -0.121817924 -0.05782556 0.06743986 -0.095570855 0.18256259 -0.014670955 0.2061486
-0.045003142 0.1948331 0.09942287 0.19335903 0.04188906 0.03326614 -0.09829623 0.1956986
0.18850209 -0.057612777 -0.020899504 0.19834508 0.3145561 -0.016371738 -0.096746184 -0.21758564
0.07334301 0.006332941 0.031692673 -0.13835414 0.010158752 -0.07440569 -0.2827229 0.006792762
-0.26457873 -0.10036677 -0.029269451 -0.12055876 0.048677523 -0.18410474 -0.23413996 -0.22247346
0.033948906 -0.0625035 -0.06624259 -0.039612163 -0.08622464 -0.07420122 -0.104393885 -0.030066812
-0.044876758 0.24282573 0.22825626 -0.2135962 -0.27848095 -0.086868785 -0.0650232 0.089404374
0.031410746 -0.16275258 0.17956781 0.1580729 0.0067450544 0.03446917 -0.075798266 -0.09196142
-0.06732538 0.00036461197 -0.040110797 -0.002255347 -0.061236534 0.20224549 0.265256 0.1525204
0.15395053 -0.062043037 -0.03791109 0.1744918 0.009702792 -0.051649094 0.13038214 -0.009386287
0.0995516 -0.12706034 -0.18521588 0.15196644 -0.033163335 -0.0027615973 0.07001488 -0.044725984
0.071820445 0.076969005 0.051160328 0.10007165 0.185737 0.16472988 -0.10154116 0.14320323
0.039525535 -0.004699801 -0.07787215 -0.16028208 0.10956852 -0.23707312 -0.004390188 -0.16391951
0.17057224 0.06520509 -0.20297132 -0.06746519 -0.048154913 0.017124426 0.103621766 -0.09832729
-0.067858495 0.20608938 -0.044375088 0.026026165 -0.26613596 -0.0074380483 0.036885448 -0.032305077
0.043735635 0.010075803 0.06274968 0.09111233 0.06928464 -0.038344864 -0.02055302 -0.08310032
0.10651574 0.18355368 0.01650594 0.009881855 0.106233254 0.112668015 0.06452916 0.00068562484
0.037739687 0.036751695 0.12482492 0.1925128 0.19359048 -0.1313099 0.16363241 0.08372322
-0.047052633 -0.20307276 -0.15427235 0.0064743133 0.16121294 -0.15853965 -0.052533597 -0.14148532
0.16433132 0.013091535 -0.15487286 -0.19607715 0.003912189 -0.017384127 -0.046071894 0.18453439
-0.13802332 0.030192593 -0.017650658 -0.09376852 0.12844466 0.050715774 -0.13608232 0.0041862675
0.15645477 0.09073761 -0.1619902 0.039250128 -0.032693498 -0.012545233 0.06394827 0.13528906
0.033936623 0.023306163 -0.054427832 0.06537949 0.04821397 0.20438883 0.09266185 0.117954694
-0.16860965 -0.23225626 0.095079035 0.2637292 -0.071843155 -0.20445251 0.06726765 -0.14405563
0.15455014 0.023205679 0.028541507 -0.013935814 0.101467006 0.036208782 0.08337117 0.28931522
0.11060107 0.04025645 -0.059534542 0.014928084 -0.08543443 0.0030158798 -0.043774895 0.17224835
0.13129999 0.032124795 0.17668213 -0.08434991 -0.2223912 0.21243227 0.03127003 0.13208072
-0.023519678 -0.21327212 0.3248757 0.2810229 -0.01941708 -0.08348334 0.1410972 -0.019916376
0.023675255 -0.015875785 0.035484977 0.051804762 -0.11945029 0.16690084 0.14317209 0.038308136

weight_hh_l1 f4 [128, 32]
00000000: 34f9 89bd cecb 1f3e 23d9 1a3e ff1c b13d
00000010: 1f1e 523c 786b adbd 8853 91bd a788 0fbd
00000020: 5b37 f8bc 4772 ccbd 95db 05be 478e 65bd
00000030: 4a2e 8ebd 9baf a5bd 82cd 8ebd a612 f63d
00000040: 84dd 1c3d 83d0 18be d796 fa3c 63ca 24be
00000050: a3c5 9ebd 63be f03d f29e 32bd 89bb 7bbc
00000060: e778 7e3d d2fa 1cbc da56 923d 960c 86bd
00000070: 2748 24be 7e42 0a3e 8c9f 9f3d c7b1 50bd
00000080: a117 b0bd 8255 b53d 5413 db3d 7823 efbd
00000090: 434f 483e 8d13 4fbd 750b 723d 76ff 81bd
000000a0: 2e7c c43d f605 7bbe ef2a 403d f1b1 363e
000000b0: c9e4 9b3d ec5b 533e dd91 913c 27dc 44be
000000c0: 6f79 cfbd 9636 8a3c 72bf b13d c344 23be
000000d0: 312c a8bc 4cc9 30be f917 433e 0b2f 993d
000000e0: 7cd8 fb3c 2dca 43bd 18af e2bd f140 bbbc
000000f0: 2453 e13d dbf3 9bbd 9a61 533d 2221 303e
00000100: fbf2 193e ce1a 493e 8216 1a3e e664 c0bc
00000110: 9241 c5bd be0a 913d 715d 093e 1079 b83b
00000120: 2f32 d1bc 273d 11be 7226 68be 0e3c 673d
00000130: 1394 2abd ea7f 8a3d 655e b7bd ed7d 2abe
00000140: 814b 343e 3afe d23c 33e1 aa3d 9051 093e
00000150: 53d9 833d 6839 193e ea36 033e fa00 00be
00000160: 9911 e53d 3161 4bbd 2ebb 96bd 0f1c 21be
00000170: f4a3 303e 009b 3ebd 656b 71bd 3201 9d3d
00000180: e5b9 d73d fcf7 b1bd 2794 c93b 7a26 febd
00000190: 0cc8 ca3d 3064 ac3d c33a 6dbd df2c 3ebd
000001a0: f8a6 2a3e 26d6 d73d 2e1f 633e 7cd3 a23d
000001b0: 1119 a1bd 7599 69bd 4358 aa3d 3c5f 65be
000001c0: 059d 17bd 5edd c8bd c534 2f3e ba77 bf3c
000001d0: 7d2a d6bc f78a b43d 0a71 3d3e cbcf 883d
000001e0: 5724 e43d 9ea4 d3bc 63d3 9f3d a276 11be
000001f0: 7d85 203d 204d cc3d c777 71bc f7f4 073e
00000200: e599 c83d dc3c 123e 2ddb 15bd 34d0 dd3b
00000210: 62bd 4bbe 6b4d 90bc 5df0 42be cf19 f03d
00000220: fd8a 63bd 4f36 db3d 9844 1e3d 2371 973d
00000230: 2e9a 6cbd 6313 c53d 229f 04be 9c8a bb3c
00000240: 40ca 64bd 8ea5 10be 6e90 6b3d 21cd 2bbd
00000250: 968a 92bd 9f35 97bd 6df1 ef3d 848d c4bd
00000260: 7037 833d 277f 9fbd 3c19 47bd af4d 3abc
00000270: 537b 283d 9afe 803d 74bb 54bd 063e 053e
00000280: 8e3a 853e dda2 303d 9176 59be a94a 053e
00000290: cf2a dfb8 28bf d23d cd19 4b3c 5ba2 903e
000002a0: 0638 1bbe cd51 36be 46ea 863d 9264 153e
000002b0: 2f1e 58be 4d4f a4bc 34e6 833d bc49 153d
000002c0: 5797 0b3d df0a 613d d4f8 d93d 8ec1 853c
000002d0: e3cb 6d3e a328 5cbe e542 6dbd b885 583e
000002e0: add4 89be ee35 b73b 0fa8 4cbe 5907 933d
000002f0: dc48 7a3e f0f2 cb3c 306b 32be 20a8 fd3d
00000300: bc45 193e 1a39 efbc 2d11 1cbe 05ef 003e
00000310: 1cee 1d3e 7536 503d 1765 fb3d f320 cbbd
00000320: 5313 3bbc 297a 2cbd 7011 ddbd 5342 03be
00000330: efe4 923d d021 95bd b4a1 84bd 06ae f33c
00000340: a7d9 fe3d ea68 14be 3394 f33d 3711 283e
00000350: e011 1abe a869 70bd 511b 57bd 1bef 913d
00000360: c260 9e3b 55b9 e93d e6cc f2bd 2c81 e23d
00000370: 8dd0 983d d0f1 b5bd 8d5f 10bc b4c4 2b3e
00000380: 9b53 693d 3259 233e b326 d1bc 1cf8 34be
00000390: afbb 6b3d ab12 d8bc cf1b 183e 1a03 febd
000003a0: 2e19 1bbe 1ceb 97bd 9494 cbbd 87a6 1dbe
000003b0: 7d8a 2d3e 88c4 57bc d744 f43c 47f3 a5bd
000003c0: ca81 aabd a4da 17bd 1071 a23d 5a14 86bd
000003d0: 52ba 0fbd 7c5b c9bd 028b ffbd 48ab e83d
000003e0: 085c 86bd 6e6d 9dbc b370 b2bd 644f 883d
000003f0: 8bdf ed3d 12fa e73d 7ccc 783d fc74 263d
-0.06736985 0.15605089 0.15121894 0.08648109 0.012824564 -0.08467764 -0.070960104 -0.03504243
-0.030299833 -0.09982734 -0.13072045 -0.05604389 -0.06942423 -0.08090135 -0.06972791 0.12015276
0.03829719 -0.14923291 0.030589504 -0.1609283 -0.0775254 0.117550634 -0.043608613 -0.015364536
0.06212702 -0.009581285 0.07145472 -0.06545369 -0.16043149 0.13501927 0.07794103 -0.05095079
-0.08598257 0.088542 0.10697046 -0.11676687 0.19561486 -0.050555754 0.059092958 -0.063475534
0.09593998 -0.24513993 0.046915945 0.17841317 0.07611997 0.20640534 0.017769748 -0.19224606
-0.101305835 0.016871732 0.086790934 -0.159442 -0.020528885 -0.17264289 0.19052114 0.07479676
0.030742876 -0.04780023 -0.11068553 -0.022858115 0.11002186 -0.07614871 0.051606752 0.17200139
0.15034096 0.19639131 0.15047649 -0.023485612 -0.09631647 0.07082127 0.13414551 0.005629666
-0.025536625 -0.14183484 -0.22670916 0.056453757 -0.04164512 0.06762679 -0.08953551 -0.166496
0.17606927 0.02575599 0.083437346 0.1341002 0.06437936 0.14963305 0.12813917 -0.12500373
0.11184997 -0.049653236 -0.073599204 -0.1573336 0.17250043 -0.04653454 -0.05894031 0.076662436
0.105335034 -0.086898774 0.0061516943 -0.124096826 0.09901437 0.08417547 -0.057917368 -0.04642951
0.16665256 0.105388924 0.22179863 0.07950494 -0.07866109 -0.057031114 0.08317616 -0.2239961
-0.03701498 -0.098078474 0.17109974 0.02337252 -0.026143307 0.08815568 0.18500152 0.06680258
0.11139744 -0.025835332 0.07803991 -0.14205411 0.039189804 0.09975648 -0.01473803 0.1327704
0.09794978 0.14281029 -0.036585975 0.0067692045 -0.19896463 -0.01761504 -0.19037004 0.117236726
-0.05555247 0.10703718 0.038639635 0.07394626 -0.057764225 0.09622838 -0.1295133 0.022893243
-0.055856943 -0.14125654 0.057510786 -0.041943673 -0.071553394 -0.07383274 0.1171597 -0.095973045
0.06407058 -0.07787924 -0.04860805 -0.01137106 0.041133236 0.062985614 -0.05193658 0.13011941
0.26021236 0.04312407 -0.21236636 0.13016762 -0.00010641442 0.102903664 0.012396288 0.28248867
-0.1515809 -0.17804642 0.06587653 0.14589146 -0.21105264 -0.020057345 0.06440392 0.03644727
0.034079876 0.054942008 0.10643163 0.016327646 0.23222308 -0.21499877 -0.057925124 0.2114476
-0.2692007 0.0055911457 -0.19985984 0.07179136 0.24441856 0.024896115 -0.17423701 0.12385583
0.14968008 -0.029202033 -0.15240927 0.12591179 0.15422863 0.050833184 0.12275141 -0.09918394
-0.0114181815 -0.04210869 -0.107943416 -0.1281827 0.07172572 -0.0728184 -0.06476155 0.029746067
0.12443858 -0.14493147 0.11893501 0.16412817 -0.15045881 -0.05869451 -0.052516285 0.07125684
0.004833312 0.114123024 -0.118554875 0.11059794 0.07461653 -0.08884013 -0.008811844 0.16774255
0.056964498 0.15951994 -0.025531149 -0.17672771 0.057552036 -0.02637609 0.14854358 -0.12402935
-0.15146324 -0.074178904 -0.099404484 -0.15395556 0.1694736 -0.013169415 0.029817982 -0.08103042
-0.083255365 -0.037073746 0.07931721 -0.065468505 -0.0350898 -0.098319024 -0.124776855 0.11360794
-0.06560522 -0.01921722 -0.08712902 0.066557676 0.11614903 0.11326994 0.060741886 0.04063891

bias_ih_l1 f4 [128]
00000000: 6651 f2bd a685 19be ac5d 5abd e66a 7cbe
00000010: d88b cbbd b9c9 b9bd b621 8d3d 34d3 2c3e
00000020: 6bcd 53be 11ed 22be 2fef 34be 3358 8c3d
00000030: 5bcb f9bd 99e0 61be 4194 ab3d 9f86 b7bd
00000040: 9edf 843d 700f 9dbd e1cb d93c 0253 133e
00000050: 98ea 053e a648 1fbe 60fb 26be dc81 f93d
00000060: 9a71 c73d 2cf7 20bd b51e 84bd b8b8 583d
00000070: d47b efb9 70a4 f8bd f24f 08be 3ca4 16be
00000080: 0677 e73d 3838 3f3d fec7 b43d ac78 68be
00000090: 4b16 0abe a8ca 993d 066c 96bd e6f2 413e
000000a0: 1b19 04be cc95 523d 6bef 853d ec1a 173e
000000b0: 6d01 44be 34f4 613d d456 383e 8974 c7bd
000000c0: fda1 0f3c b5be 59be 5135 133e 2cfe 04be
000000d0: 743e e3bc 14bb 5fbb 68d5 52bc c1c4 3abe
000000e0: 7b54 053e d609 843d cb1f 483c 316e cfbc
000000f0: 623e 47be 3c74 59bc 42ab d0bd f26f 95bd
00000100: 0a50 413d bad2 123e 18bb b43d 3473 bcbd
00000110: 45f3 01be d215 d2bc ee47 2ebc 02fd e63b
00000120: 9235 09bd 65f9 00be 57aa b23c e086 b5bd
00000130: f30c 01bd 08d5 a7bc a1f8 0abe 0097 1c3e
00000140: a71b 013e fbb1 553c 6fcd 3a3d 3179 3ebc
00000150: 19c5 acbd f750 be3d 0d00 85bd b2ef f83b
00000160: dea6 383e a7fa bd3d 3b3b 9fbc 0940 9cbd
00000170: aad4 ec3d fae1 cfbd 5702 5abd db48 1bbd
00000180: 6eab 483e f05e 3dbe 7833 c03d 6e09 84bd
00000190: 1239 313e 0b96 a7bd e2c4 c23c 6c6d 323e
000001a0: a808 7dbe b44b 193d 9430 1bbd 3445 073e
000001b0: 901a 9ebd 0b9f dcbc 3929 fd3c 04f1 003e
000001c0: 5f1c e83d 859d 68be 80a6 0ebe 10ad a0bc
000001d0: 8fa3 103e f593 1fbd 16cb 44be d8f9 3abd
000001e0: 09fe 1dbe 16d5 7e3c 8460 a53d b75f 1dbe
000001f0: 19cf a2bd 9ba9 e1bd a2ba a4bd f82f 4fbd
-0.11831932 -0.14992389 -0.05331199 -0.24650154 -0.099387825 -0.09071679 0.068911955 0.16877443
-0.2068383 -0.15910746 -0.17669366 0.0685276 -0.1219699 -0.22058333 0.083778866 -0.08961224
0.06487964 -0.0766896 0.026586475 0.14387134 0.13077772 -0.15555057 -0.1630683 0.12182972
0.09738465 -0.03929822 -0.064511694 0.052910537 -0.00045677891 -0.12140739 -0.13311747 -0.14711088
0.11301999 0.046684474 0.08827208 -0.22702283 -0.13485067 0.07509357 -0.073448226 0.18940315
-0.12900202 0.05141239 0.06539806 0.14756364 -0.19141169 0.05516453 0.18001872 -0.09739024
0.008766648 -0.21264155 0.14375807 -0.12987584 -0.02773974 -0.0034138607 -0.012868263 -0.18239118
0.13020508 0.064471886 0.012214611 -0.025321098 -0.19457391 -0.013272341 -0.10188915 -0.072967425
0.04719547 0.14338198 0.08824748 -0.09201661 -0.12690456 -0.02564517 -0.010637267 0.007049204
-0.033498354 -0.12595136 0.02180974 -0.08863616 -0.03150649 -0.020487323 -0.13571407 0.15291977
0.12608205 0.013042922 0.045606073 -0.011625574 -0.08436031 0.092927866 -0.0649415 0.0075969333
0.18032405 0.09276324 -0.019437423 -0.07629401 0.11564 -0.101505235 -0.053224888 -0.037911277
0.19596645 -0.18493247 0.09384817 -0.06447111 0.17306927 -0.08182915 0.023775522 0.17424554
-0.24710333 0.03742571 -0.037888125 0.13209993 -0.0771991 -0.026931306 0.030903446 0.1259194
0.11333536 -0.22716339 -0.13930702 -0.019613773 0.14124893 -0.038959462 -0.19218096 -0.045648426
-0.15428938 0.015553733 0.080750495 -0.15368544 -0.07949657 -0.11018678 -0.0804341 -0.050582856

bias_hh_l1 f4 [128]
00000000: 269c d33d 276f abbd 4b8d 4f3c a57c 71bd
00000010: b15e f6bd 27e4 4cbd 4915 06bd ac12 1ebe
00000020: 3644 aebd 4955 183e baf4 2d3d 6444 033e
00000030: 73f0 2dbe 931f 1dbe dd31 08be c69d f6bd
00000040: 30d7 05be 182a 1cbe af08 973c 9d10 48bc
00000050: 89ce 0f3e 5e75 cebd 6e55 07be 0469 dabd
00000060: 1430 36bd 68cf d33d e38c 1d3e 0445 48be
00000070: c563 083e b708 64bc 1ee7 91bd b1eb a6bd
00000080: 2e4e 383e 12fd 2ebe 0b58 b5ba 458d 1ebe
00000090: cbad c23d 022f 94bd 8016 d13d 965d 8dbd
000000a0: b586 85be 8ff8 b23d 8001 3fbe 0d3d 92bd
000000b0: 29f2 1cbe 5ed3 1ebe 9d2f 153e 5f48 b53d
000000c0: 943f 353e 499b 2cbd 844c e0bd d431 15bd
000000d0: 231e f43d 7418 48bd 1c6c c43d 6354 843d
000000e0: 2ec7 9f3d d8e9 0b3e 6910 5dbb c1e7 2d3d
000000f0: 3bdf 373d 6e25 a63b 2d61 fabd 8a52 40be
00000100: 61bb 08be 3c66 0ebe 0c82 b43d 6467 313c
00000110: 7f7e 06be 396d 9cbd ed89 10be 3a89 98bd
00000120: 8ea6 a7bd 7112 d63d 8991 ecbb b617 093d
00000130: 558d a23d 0a4f a83d 3fcc 63bd 3ab5 ac3d
00000140: b2a3 283e 9b27 0c3e 1b55 9abc 7b71 a83d
00000150: 509c a6bc 1850 1bbe 72b7 02bc 6a82 44bd
00000160: 19a2 ff3c 5a05 c03d d810 8b3d 500a eebc
00000170: f37e cfbd d90d 3b3c 4f4a c23d eab1 2abe
00000180: 7b00 b93d b9c4 b8bb bbf0 433d 3b46 05be
00000190: 0cef 9a3d dbbe 0c3d b72e 0ebe 4b73 c0bd
000001a0: a140 84be 1737 9a3b eb77 0a3d ed89 223d
000001b0: 1aec 41be 9ad7 b43c 8fc2 2b3e a751 d8bd
000001c0: 37db d93d 7e54 0ebe 53ca dc3d fe07 9abd
000001d0: d445 e73d 28db df3d 6389 45be c5dd 0bbe
000001e0: e873 a4bd dfcc e03d c9cd d73d 888a 833d
000001f0: 1343 f3bd 8677 4fbe 4741 b63d 9727 bc3d
0.10332517 -0.0837081 0.012667964 -0.05895676 -0.1202978 -0.05002227 -0.032735143 -0.1543681
-0.08509104 0.14876284 0.042469718 0.12819058 -0.16986255 -0.15344076 -0.13300271 -0.12041812
-0.13070369 -0.15250432 0.018436758 -0.012210992 0.1404363 -0.1008098 -0.13216183 -0.106645614
-0.044479445 0.10342294 0.15385775 -0.19557577 0.13319309 -0.013918093 -0.0712416 -0.08150423
0.17998573 -0.17088726 -0.0013835443 -0.15483578 0.09505805 -0.072355285 0.1020937 -0.06902616
-0.26079336 0.08738815 -0.18652916 -0.07140551 -0.15326752 -0.15510318 0.14568944 0.08851694
0.17700034 -0.04214028 -0.10952094 -0.036424473 0.119198106 -0.048851445 0.09590933 0.06461408
0.078016624 0.13663423 -0.0033731705 0.042457346 0.044890624 0.00507038 -0.12225566 -0.18781486
-0.1335273 -0.13906187 0.08813867 0.010827873 -0.13134192 -0.0763802 -0.14115115 -0.07448049
-0.08186065 0.10452736 -0.0072194976 0.033469878 0.07937113 0.082182005 -0.055614706 0.08433004
0.16468695 0.13686983 -0.01883941 0.0822477 -0.020338207 -0.15167272 -0.007978307 -0.047975935
0.031205224 0.09376021 0.06790322 -0.029057652 -0.101316355 0.011416876 0.094868295 -0.16669431
0.09033295 -0.0056386855 0.047837 -0.13015072 0.07565126 0.0343617 -0.13885008 -0.093969904
-0.25830558 0.0047062743 0.03380577 0.039682318 -0.18937722 0.022075463 0.16773437 -0.10562449
0.10637515 -0.13899419 0.10780778 -0.07521056 0.112926155 0.109304726 -0.1929069 -0.13658817
-0.0802992 0.10976576 0.10537297 0.06422907 -0.11878028 -0.20260438 0.088991694 0.09187239

weight f4 [1, 32]
00000000: 8d53 eebd ce5c 0ebe 0370 183e c038 bf3d
00000010: dae8 4cbe 020b 38bd 9e9a abbd 14bb 5dbe
00000020: 1533 1ebd 8f96 d03d 8b42 d83d c74b 27be
00000030: b516 23be 2a47 2ebc 76de 37be a31d 2c3e
00000040: 2143 de3d 630b 8aba 3b57 d9bd f6c4 503e
00000050: 399f 4bbd b40b 913d 75cb a53d 830d 0a3e
00000060: 150b 4a3e 368d 043e 0524 e73d ba7a fe3c
00000070: 63cc 85bd 910c 5f3d 9457 8c3c fddc bfbd
-0.1163703 -0.1390259 0.14886479 0.09336996 -0.20010701 -0.044932373 -0.083791 -0.21653396
-0.038622934 0.10184967 0.10559567 -0.163375 -0.15926631 -0.010637084 -0.17955956 0.1680818
0.108526476 -0.0010531958 -0.10612341 0.20387635 -0.049712393 0.0708231 0.08095447 0.13481717
0.1973079 0.12944493 0.11286167 0.03106438 -0.06533124 0.054455344 0.017131604 -0.09368322
