lstm_strat/test.pt (torch, 62493 bytes, 9 tensors)

weight_ih_l0 f4 [128, 1]
00000000: 8e46 a13d 1d05 893d c636 3cbe 8e8a 7abd
00000010: df99 b03d 28c1 85be a0a2 54be e2c8 a33c
00000020: a42f 5d3d 09c6 413e b290 ddbc a409 8b3e
00000030: c0da 893c 8aee d83d 015b a93d f0af 303e
00000040: bf87 31bd 1f24 283e 0122 32be f4b4 1bbe
00000050: 3161 2f3b 1e8a 393e 39a1 533e a006 b5bd
00000060: 2304 90be 33c2 83be 307a 553e 2010 563d
00000070: cca4 41bd 14fe 493e 3c54 b73d 1c25 583e
00000080: 1765 7c3e 7bbb 38be 309a e8bd 4110 b53a
00000090: febb b3bd 6084 97be 698b 9bbd 49ec 3a3e
000000a0: 4450 e13d 300c f7ba 7f51 49be 201f 843e
000000b0: 61ed 88bc c419 4c3b 4de4 653e 7366 2b3e
000000c0: ed42 73be 20ff a53d 1b8f f8bc 8d7a 40be
000000d0: 317c 30be 3ec6 c33d 2c46 043e 9e60 f2bd
000000e0: 467a 02be dee9 0c3d 726f c83d 2fc1 553e
000000f0: eb6b 3abe c1c6 b53c 7497 713e 0437 8fbd
00000100: de15 7f3e bb55 953e 5de2 d3bd cb7c 973e
00000110: 9261 293e f9f1 4fbe edbf 26be 3425 6abe
00000120: 8c96 9d3d 7d3b 853e c762 7c3e 1417 48be
00000130: 2c72 883e 8c22 a7be c413 6b3e 441f 63be
00000140: 4670 5e3e ff56 343e 9355 83be 885f 2ebe
00000150: 50e1 59be 172e 91be 65b8 683e d0d3 13be
00000160: d300 37be f40b 0f3e 6bfc 96be 007c 2bbe
00000170: 34b0 80bd f778 8abe 29c7 bc3d d447 8b3e
00000180: ba1f 203e 1b90 c33d cf93 6bbe 9c50 873e
00000190: e29c 633e 7eba 92be 61ac 71be e714 553e
000001a0: 8b80 af3d 5777 113e 21ad 2dbd 930e 283e
000001b0: 4327 473e 0450 3a3e 06b6 c23d 1532 643e
000001c0: be5c 9abe 0281 96bc 3654 60be e317 c6bd
000001d0: 4cb8 68be 0aaa 033e e2eb f23d 4340 9a3c
000001e0: e50d 1bbe f412 8abe 0fa6 083e 9bc7 383e
000001f0: 1c57 873d caff 103e db7e ccbc 916d f33c
0.07874785 0.066904284 -0.1838027 -0.061167292 0.086230986 -0.2612393 -0.20765162 0.01999325
0.05400051 0.189232 -0.027046535 0.27155793 0.016827941 0.10592373 0.08269311 0.17254615
-0.04334235 0.16420029 -0.17395784 -0.15205747 0.0026760811 0.18119094 0.2066697 -0.08839154
-0.28128156 -0.257341 0.20847392 0.05226147 -0.047276303 0.1972583 0.08951613 0.21107906
0.24647938 -0.18040268 -0.11357534 0.0013814048 -0.08776091 -0.29593182 -0.0759495 0.18254198
0.110016376 -0.0018848237 -0.19659995 0.25804996 -0.016714754 0.0031143287 0.22450371 0.167383
-0.23755999 0.08105302 -0.030341676 -0.1879675 -0.17234875 0.09559296 0.12917393 -0.118348345
-0.12741956 0.03440272 0.097868815 0.20874475 -0.1820523 0.0221895 0.23592931 -0.06992915
0.24910685 0.2916697 -0.1034591 0.29587397 0.16541126 -0.20307149 -0.16284151 -0.22865754
0.0769473 0.26021948 0.24647056 -0.19540054 0.26649606 -0.32643545 0.22956759 -0.22179896
0.21722516 0.17611311 -0.25651225 -0.1702863 -0.21277356 -0.28355476 0.22726591 -0.14436269
-0.17871408 0.13969404 -0.29489455 -0.16746521 -0.06283608 -0.27045414 0.09217674 0.27203238
0.15637103 0.0954897 -0.23005603 0.26428688 0.22227815 -0.28657907 -0.23600914 0.20808755
0.085694395 0.14205681 -0.042401437 0.1641181 0.19448571 0.18194586 0.095073745 0.2228473
-0.30148882 -0.018372063 -0.21907124 -0.09672525 -0.22726554 0.12857834 0.11861397 0.01882947
-0.15142019 -0.26967585 0.13344596 0.18044893 0.06608412 0.14160076 -0.024962833 0.029715331

weight_hh_l0 f4 [128, 32]
00000000: d9f0 8c3d 7cf6 24be af95 8ebd a6d0 1f3d
00000010: 830a 003e 353b d1bc a7c5 163e 8fdf 7539
00000020: 15eb a03c 3258 343e 4730 a93c ea08 85bc
00000030: ff25 ab3d 7ed1 d63d 5e3c 0b3d 8652 2ebe
00000040: 7fcb 023e 336e 0cbb 4707 ba3d 4ab7 223e
00000050: 31c1 0cbe c333 5abe 5207 edbd 775f 1dbd
00000060: 00df 173d a2f2 07be 0ca1 50be 6a88 8a3d
00000070: 9fa8 28bd e17f 073d 84fe 40bc f614 923d
00000080: 6d4c 853c fcd5 3abb ecd5 863d a788 cabd
00000090: 758a 3bba 7ba1 463e b9c4 403d 0d8e 0ebe
000000a0: 6d79 2d3b 4a49 d23d ee89 13be a2bf 11be
000000b0: d400 57bd fa20 f83d 7e13 123d ecfe 3dbe
000000c0: a974 68be d922 99bc 1d9b 4a3e 83d5 a73d
000000d0: c35d 173e 98e7 f33d 594e 1fbe d826 8bbd
000000e0: 100d 7b3e 2b34 44be 2484 fbbd 33cd 43bd
000000f0: d641 59bd 1772 cabb a92d c13d eaf7 bebc
00000100: 0c23 2bbe 27ad 053d dc1e 00bc 0529 00bc
00000110: ebcb 66bd 1b2c a83c 299f f03d d8bb 7fbc
00000120: bf83 98bc e07b 11be 5eb1 ba3d 4020 063d
00000130: da83 5bbe 8fa0 adbd e73a 85be fde1 b0bd
00000140: bfe1 503c 109d 20bd ba0d 82be bfaa f9bd
00000150: 566f 763c 5fbf 313c ba44 37be a919 473e
00000160: 3fae 403d 9525 5cbc fd26 d93d 044b f03d
00000170: 5078 dcbd 5837 893c dfd2 693e d2bb 48be
00000180: 4c03 ba3d cb79 1c3e d77d 6cbe e263 583e
00000190: e3de 81bc cfbc 723e 73bd c5bc 0c42 1dbe
000001a0: 2ffc 7b3e 349b abbd fdd2 0f3e 3b75 e83d
000001b0: 3b45 edbc 85c6 aabd b980 3a3e 35b5 49be
000001c0: f0b4 b0bd 0922 263e 6e4b ddbc 6b60 8dbc
000001d0: b4c3 b9bc 6c28 0abd bef2 1a3e ea21 67be
000001e0: 8ee0 9dbc 3edd a7bd e95e fbbd c319 57be
000001f0: 42a9 06be 8333 823c 08f7 aa3d 44fd 483e
00000200: 6ca6 133e 2679 e03d 57c0 42bd ab1e 283e
00000210: a4d9 41bd 9540 9d3d 1961 febd 73a6 c3bd
00000220: 1613 e33d 7b20 9b3d cc0a 093d 5c07 8d3d
00000230: 2999 25be daa0 08bd 3dd1 0c3e 4f64 94bd
00000240: 8ca5 863d 0008 41bd 9d1c 4dbe 80b0 8f3d
00000250: 807e 3c3d 5762 a5bc 8425 023e f23b a8bd
00000260: 5ebe b03c 1740 9ebc 39fe 943d ad47 e839
00000270: 6c20 0cbe 801c 95bd 9436 97bd 5951 35bd
00000280: 7cd2 edbd c717 60be b8cd 093d ecda b03d
00000290: affa 47be d53b 2c3d 2a86 003e 564a a73d
000002a0: 7510 5ebd 7749 05be 8866 d5bd b5bb 0f3e
000002b0: ef36 1abe e61b dc3c 1322 a9ba 5d91 153e
000002c0: 29ae 183e 5f00 18bd eb38 133e 1224 043c
000002d0: 66d3 373e 0f19 5f3e fdb6 e9bd f440 11be
000002e0: e895 953d 2cbd dd3d 4ea9 533d 3f86 bc3d
000002f0: 56b0 983d 6383 81bc 97d0 bbbc fb9b b9bd
00000300: a46a 903d 498b c7bd 35a1 3c3c e03d 50be
00000310: 51aa b8bd 5810 423e 5ddc a63e 9903 0dbd
00000320: 7cc1 b33d 8048 92be 76e8 dfbd 9217 e63d
00000330: f30a 6cbe 6330 503d ce72 6b3c acfa 623e
00000340: b2cd df3d 59bf 4abe 5147 64bd 0728 1b3e
00000350: fd77 e73d 8b40 19bc 6fc5 d63c 2924 48be
00000360: c34f 1f3e 05af f13b bbec 743c dd7f e9bd
00000370: 987b ba3c f412 4e3e ce69 403e 7deb d2bd
00000380: 1ee9 44bc 1fda b5bc b512 bcbd e2df b9bb
00000390: 2196 fe3d 866b babd d531 09bd 4c27 113d
000003a0: b9b7 83bd 5e86 133e d383 ddbd 2cb4 40be
000003b0: 0e66 cfbd 8252 e3bd 187f 673d 1ecf 98bc
000003c0: 4436 f23d b5ea 003e a25d dabd 010c 013e
000003d0: 6066 ac3d e865 28bc 7ba1 80bc 99de c53d
000003e0: 7ce5 85bd 54e1 07be 38a4 2ebe 1bf0 5dbd
000003f0: 1755 ab3c fe3d 0fbe ddda 513e 53e6 eebb
0.068818755 -0.16109651 -0.06962144 0.039017342 0.1250401 -0.025540927 0.14723836 0.00023448303
0.019643346 0.17611769 0.020652903 -0.016239602 0.083568566 0.10489176 0.033993118 -0.17023668
0.1277294 -0.0021427989 0.09083419 0.15890232 -0.13745572 -0.21308808 -0.11573662 -0.03842112
0.037077904 -0.13276151 -0.20373935 0.067643 -0.041176435 0.03308094 -0.011779431 0.07132904
0.016271794 -0.0028508892 0.06583771 -0.098893456 -0.00071541156 0.19397537 0.04706261 -0.13921376
0.002647008 0.10267885 -0.14408085 -0.14233258 -0.052491024 0.12115665 0.03566312 -0.18554276
-0.22700752 -0.018693374 0.19785734 0.08195021 0.14781861 0.119094074 -0.15557231 -0.06794518
0.24516702 -0.19160526 -0.12281063 -0.047803115 -0.0530413 -0.0061781514 0.09432537 -0.023311574
-0.16712588 0.032635834 -0.007819857 -0.00782228 -0.056346815 0.020528844 0.117491074 -0.01560875
-0.018617509 -0.14207411 0.09115861 0.0327456 -0.21437016 -0.0847789 -0.260215 -0.08636854
0.012749135 -0.039212286 -0.25401098 -0.1219077 0.015041193 0.010848849 -0.17897311 0.19443382
0.047041174 -0.013436695 0.106031395 0.11733058 -0.10765135 0.016750023 0.22834347 -0.19602898
0.0908266 0.15280835 -0.23094879 0.21131852 -0.015853351 0.23704837 -0.024138188 -0.15357226
0.24607919 -0.08379212 0.1404533 0.11350485 -0.028963676 -0.08338646 0.18213166 -0.19698031
-0.08628261 0.16223921 -0.027013507 -0.01725789 -0.022676326 -0.033729956 0.15131661 -0.22571531
-0.019272115 -0.081964955 -0.12273962 -0.21005921 -0.13150504 0.015893703 0.08347899 0.19627863
0.14418954 0.10960607 -0.04754671 0.16417949 -0.0473267 0.07678334 -0.12420864 -0.09553232
0.11087625 0.075745545 0.033457562 0.06886169 -0.16171707 -0.033356525 0.13751693 -0.07245695
0.06574544 -0.04712677 -0.20030446 0.070160866 0.046019077 -0.020188494 0.12709624 -0.08214559
0.02157515 -0.01931767 0.072750516 0.0004430389 -0.13684243 -0.072808266 -0.07383457 -0.044267032
-0.11612412 -0.2188407 0.033643454 0.08635506 -0.19529222 0.042049248 0.1255118 0.08168475
-0.054214913 -0.13016306 -0.10419947 0.14036448 -0.15060018 0.026868772 -0.0012903832 0.14606233
0.14910187 -0.03710973 0.14377181 0.00806524 0.17951736 0.21786903 -0.11411855 -0.14184934
0.07303983 0.10827097 0.051675133 0.09205293 0.074555084 -0.01580972 -0.022926612 -0.09062954
0.0705159 -0.097433634 0.011513044 -0.20336103 -0.0901686 0.18951547 0.3259 -0.03442726
0.087771386 -0.28570938 -0.1093301 0.112349644 -0.23051052 0.050827395 0.014370633 0.22165936
0.10927905 -0.19799556 -0.055732075 0.15151988 0.11302183 -0.009353767 0.02621719 -0.19545044
0.1555777 0.0073756003 0.014949019 -0.11401341 0.022764012 0.20124418 0.18790361 -0.10298822
-0.01201847 -0.022198735 -0.091832556 -0.005672441 0.124309786 -0.0910254 -0.03349479 0.035437867
-0.06431527 0.14406726 -0.10816159 -0.1881873 -0.10126887 -0.110997215 0.05651769 -0.018653449
0.118267566 0.12589534 -0.1066239 0.12602235 0.08417964 -0.010278203 -0.015702 0.09661598
-0.06537911 -0.1326955 -0.17054832 -0.05418406 0.020914597 -0.13988492 0.20493646 -0.0072906404

bias_ih_l0 f4 [128]
00000000: 4295 9339 0437 f23d 8bcb 09be 72e3 2d3e
00000010: dca3 663d 6038 8c3b 077e 0bbe 706c 60bd
00000020: f0f2 15be 15dd a43d 546c dfbd 55cc 9c3d
00000030: 1d85 98bb 9afb 533e a965 e4bc b259 493d
00000040: d73e f7bd 430b 863d 8c6f edbc b112 53be
00000050: 1a1a c0bd 0288 20bd b648 0ebc 5d6b 0cbe
00000060: 5d88 ae3d 4424 82be 04f0 b13d f526 d5bd
00000070: 5bd6 2dbd c082 fa3d d098 af3d fd32 193e
00000080: 378e 76bd 61b9 c0bd 0deb 35be 0f23 343a
00000090: f6c7 f2bd a66b 26be 47d2 f4bc 5fac a83c
000000a0: dd12 c13d cbdb 70bd 6fb4 9fbd 3e32 f83c
000000b0: 46da bebd 9ddc 5f3e 5914 eb3c 3bcc 043e
000000c0: 15d5 11bc 38bf 843c e173 75bd f2bd 9a3c
000000d0: 8515 03be 249e 15bd c3ea 8bbd 210f 54be
000000e0: b562 fb3d ab82 2abe ef47 8a3c 233f 10bc
000000f0: c19f c2bc 728b dbbd b797 e23c ceec 033e
00000100: 3d61 10bd 53d8 803d 80d2 f83d 5109 803d
00000110: 27bc b0bd 2bd1 c83d aeb1 9cbb b30e d9bd
00000120: 8a5c 8fbd 8e60 9f3d 5005 963d 462d 1fbe
00000130: 36eb a53c 9bd8 10be 1800 2dbc f11f 49bd
00000140: 14ac 67be 466f 4abd 1aa2 f53d 16dd b83d
00000150: 299e 6a3d d3c1 973d b28f 19bd e493 8bbc
00000160: e369 3f3e 2b1f de3c 86f9 9ebd a9c3 413e
00000170: 8285 47bc 16e3 a4bd ab95 b43a 7ea3 243d
00000180: 9290 1a3e b6da 2a3e 067a dc38 d901 1e3d
00000190: db1f b9bc 114d 9cbc 7574 dc3d 02cf 49be
000001a0: f046 e6bd cb0f ddbd 0668 0d3e 6b1a e4bd
000001b0: f950 493e 40ea 0a3e 2446 ea3d eac7 d83d
000001c0: e8c5 b93d 40a7 f2bd 098d 423d 379b f83b
000001d0: 3ca7 aabd 6875 07be 29f6 b9bd 7003 a7be
000001e0: 37e8 77bd 74d2 43be d260 1ebd 271d 073e
000001f0: ffcf 78be 76ab ecbc aa73 c13d bcaa bd3c
0.0002814923 0.118269 -0.13456552 0.16981295 0.056308612 0.0042791814 -0.13622294 -0.054790914
-0.14643455 0.080499806 -0.10909334 0.07656161 -0.00465454 0.20701447 -0.027880507 0.049157806
-0.120725326 0.06545117 -0.028983854 -0.20612599 -0.093799785 -0.039192207 -0.008684328 -0.13712831
0.08522103 -0.25418293 0.086883575 -0.10407821 -0.042440753 0.1223197 0.085740685 0.14960857
-0.06019422 -0.09410358 -0.17765446 0.0006871679 -0.11854546 -0.16252002 -0.029885424 0.020590005
0.09427426 -0.05880336 -0.07798087 0.030297395 -0.09318976 0.21861501 0.028696226 0.12968533
-0.0089009 0.016204461 -0.059924964 0.018889401 -0.12801178 -0.036527768 -0.068318866 -0.20708896
0.12274686 -0.16651408 0.016880004 -0.0088041155 -0.023757817 -0.107199565 0.027660234 0.12883303
-0.035248984 0.062912606 0.12149525 0.06251777 -0.08629637 0.098055206 -0.0047819233 -0.10598507
-0.07000072 0.07782088 0.07325232 -0.15544614 0.020253759 -0.14145128 -0.010559104 -0.049102727
-0.22624236 -0.049422525 0.11993809 0.09026544 0.05727974 0.07410016 -0.037490554 -0.017038293
0.18692736 0.027114471 -0.077624366 0.18922295 -0.012177827 -0.08051126 0.0013777515 0.04019498
0.15094212 0.16684994 0.00010513146 0.03857598 -0.022598198 -0.019079717 0.107644 -0.19707873
-0.11243999 -0.10794028 0.13809213 -0.11137851 0.19659795 0.13565922 0.114391595 0.105850056
0.09070951 -0.11848307 0.047497783 0.0075868624 -0.08332679 -0.1322838 -0.090801544 -0.3261981
-0.06052419 -0.1912325 -0.038666554 0.13194714 -0.24298094 -0.028890353 0.09445889 0.023152702

bias_hh_l0 f4 [128]
00000000: f432 a13d 901a a53c 7347 b9bd 3508 023e
00000010: 9a91 44be 53cc e63d b579 193e d638 06bd
00000020: 4976 4cbe 10b3 3f3e 8a8a 3bbd 534c 27be
00000030: f770 653c 7530 083e 6122 153e 01ba f33d
00000040: ae50 b83d 4859 7e3d b339 ae3d d085 f5bd
00000050: 970a 263d 35b7 d13d c908 7dbd 9a85 bbbd
00000060: 1f16 28be 03af 47be 9ce1 b6bc 9713 cabd
00000070: 5978 1bbd e192 90bd 8ab9 433c 1865 ddbc
00000080: c655 143e f244 11be 8385 f6bd 7509 463d
00000090: 98f9 ff3d 0083 953c b6c2 d8bd 7171 f73d
000000a0: a6c6 34be df48 19bd 1839 74bc 9552 cf3c
000000b0: f4fe 593d c09f 06bd da81 5b3d 406c ecbd
000000c0: 21c8 13be 35ba 523d d67b e7bc b0e9 d4bc
000000d0: 1195 abbc 0498 323d 396a 413e 4786 77be
000000e0: 2c12 56be e26a 56be 0a36 3c3e 207c 3fbd
000000f0: 5d62 bd3b 7788 293e 5d99 b4bd b275 3e3e
00000100: dc32 003e 055e 11be 3edd 42bd ef70 073d
00000110: 144e d83d b608 d73b 7c88 023d 61ac 6dbd
00000120: b1a0 ab3d e54a f0bd 41b1 5abe 9b15 0f3d
00000130: dfdd 61bd 040a b03d 71ce a33d bc4a 6f3d
00000140: dd8e b73d 903d 0f3e 5db0 8abd afe8 29bd
00000150: 5955 173d b5c9 e5bd 6231 933d b4c8 c7bc
00000160: f413 07be c872 b0bc b396 323c 7a6f 14be
00000170: a84e 5bbd c0ad 81bb dc59 d4bd 3825 053d
00000180: 25d1 57bc 67db 253e a8a9 50bd a3f1 4b3b
00000190: e353 a43d 889f 433d 18fb 27be 96ca 86bb
000001a0: a585 de3d d9e1 513e 16b5 d7bd b8d4 303e
000001b0: 81c9 0cbe e0ac 713e 4486 2f3e e48a b73d
000001c0: 424a 0abe 742b 953c 3c2e 2f3d a80d e7bd
000001d0: d770 4abd 8a1c 113e 845d 0c3e e020 8abe
000001e0: 5045 f3bc 83be 243d 36d7 5e3d df81 32bd
000001f0: 0d5a 65be fd9d 123e 2220 95bd 1b43 b63d
0.07871047 0.020154268 -0.09046831 0.12698443 -0.19196168 0.112694405 0.14987834 -0.032769047
-0.19966997 0.1872065 -0.045786418 -0.16337709 0.014003984 0.13299735 0.14563896 0.11900712
0.089997634 0.062096864 0.08507099 -0.11988413 0.040537443 0.10240022 -0.061775956 -0.09156342
-0.16414689 -0.19500355 -0.022324376 -0.09867018 -0.03795657 -0.07059265 0.011946091 -0.027025744
0.14485845 -0.14186457 -0.12037184 0.048348863 0.12498778 0.018250942 -0.10584013 0.12082184
-0.17653903 -0.03742301 -0.01490619 0.025307933 0.053221658 -0.032867193 0.053590633 -0.115440845
-0.14431812 0.051447112 -0.028257292 -0.025990337 -0.020945104 0.043602005 0.18888177 -0.24172316
-0.2090537 -0.2093921 0.1837999 -0.046749234 0.005779548 0.16555963 -0.08818314 0.18599585
0.12519401 -0.14196022 -0.047574274 0.033066686 0.10561767 0.0065623177 0.031868443 -0.05802572
0.08380259 -0.11733035 -0.2135668 0.034932714 -0.055143233 0.0859566 0.0799836 0.05842088
0.08962796 0.13988328 -0.0677192 -0.04148167 0.03694663 -0.11220113 0.071871534 -0.024387695
-0.13191205 -0.021539107 0.010900187 -0.1449565 -0.05354181 -0.00395748 -0.10368702 0.032506198
-0.013172423 0.16196977 -0.050943047 0.0031119369 0.080238126 0.047759563 -0.16404378 -0.0041135056
0.108653344 0.2049631 -0.10532586 0.17268646 -0.13748743 0.23601103 0.17141062 0.08962038
-0.1350489 0.018209197 0.042768702 -0.112819016 -0.04942402 0.14171043 0.13707548 -0.26978207
-0.029696137 0.04022075 0.05440446 -0.043580886 -0.22397633 0.1431808 -0.072815195 0.08899518

weight_ih_l1 f4 [128, 32]
00000000: a5c7 13bd 8f8e ea3d da9f 8abd 2651 883e
00000010: 7f13 eabd 4053 57be e5b7 273d 6d53 ecbd
00000020: 64fd e23d 45c2 943e d09f dcbd 3689 7c3d
00000030: ca74 f93d c67a 37be d2fc 2ebc 7642 5ebe
00000040: 9aff d8bc f8d9 113e c6fc 0ebe a1f2 79bd
00000050: 453e 80be 9ada 47be 8937 6c3c bccc 0abe
00000060: 0fc2 8bbd a38b 62bd 8794 48be 729f 54be
00000070: a224 d5bd 22da 0bbd 72f8 523e a59f 4cbd
00000080: 1f6d 123d 7e73 533e c367 893d b7be 083e
00000090: b69a 4fbc 1e35 8c3d f90e 393d 748d 4cbe
000000a0: 16e3 b9bc a1a7 4abd 17a1 5a3e 9e3c 0bbe
000000b0: a042 4b3e 472e 77bd 3fd9 48bd cba1 063d
000000c0: 3afd 673e 92ed e0bd 52d2 21bd eee9 2ebe
000000d0: db6a 29be 3256 14be 4227 acbd 4c4f 9b3d
000000e0: 5bac 8a3d 8ed2 0439 dfb7 1dbd 83de 25be
000000f0: 385d 85bd cbd3 01bd 484b da3d 1465 c7bd
00000100: b789 dd3d 93de 913d 1a04 5b3d d6fe 31be
00000110: d025 9cbd 9991 5d3c 24d8 7c3d 2871 4f3e
00000120: 39c6 8bbd 4ac4 42be 4183 d63c e819 b83d
00000130: 786b 84bb 21dc 353d f896 43be 6137 49bc
00000140: 3864 81be 2539 71be 8281 0e3d 047a 63bd
00000150: bf53 c13d c3d1 2cba c4ed 8cbd 989c 8fbd
00000160: 0e2f 8b3e 7b63 51be b20e abbd 1166 9bbd
00000170: 209a 18be 64d2 c93d abbf b63d ee1b 6bbe
00000180: 6ab0 cebe 81c4 17be bd61 85bd 995f a1be
00000190: a48c 61be efe4 91bd 1069 533e 5ba6 0b3e
000001a0: 6002 a1be 23cb d8bd dd86 543b 7312 923e
000001b0: 3a62 aabe 9639 af3e 2e38 81be ecc4 8c3e
000001c0: 7c82 01be 253d 15be 4b30 d13d c999 c63d
000001d0: bf75 903d 26de 8b3e 0191 c2be 4265 6d3d
000001e0: 7378 b63d 52ac c7be c145 833e 164d 4d3e
000001f0: 562a c43d 2d9e a73e c87e 393e f4aa 17be
00000200: e591 e0bd c864 943e be18 b93c b813 753e
00000210: a04f 3bbe 419b 983d 124e 31be 23fd 32be
00000220: 03dc bdbd a29a 853e 2974 ef3d 74e3 5abe
00000230: 1fec 94bc 37ea acbd b294 12be ed2b d0bd
00000240: 4d22 6a3e aaea 34be bb26 39be bc18 18be
00000250: 1314 16be 2d3e 3f3c d32f 023d a1e0 febd
00000260: 8080 81be f2ba 873d fec2 00be 900e 39bd
00000270: 5106 38be 8e3c ab3d 7dbd d1bd ca96 28bc
00000280: c376 c73c d105 0c3e 9e56 fabd 6761 99bd
00000290: 99e6 cbbd 4908 fa3d b505 853d 3b85 47be
000002a0: a913 893d 147c b43c a149 dfbd 6708 62be
000002b0: 6430 453e e21a 093d 0734 263e 5b85 563d
000002c0: fbcb 63bd 3271 153e 1262 043e 73af 49bd
000002d0: 82c7 7d3d 303c 373d 5c63 77bd 590b 5c3d
000002e0: 56c1 363e 35da ae3d 9115 32be ae60 2cbe
000002f0: edeb f1bc 7b50 8cbc c31a 9a3d e2a4 18bd
00000300: 7d9d 363d f685 73be e162 553d 71dc 61be
00000310: 603c 7e3d 86f4 623d 3e1e 803e 7129 793e
00000320: 22fd 7bbe a289 1abe c4f9 223e def2 7f3e
00000330: 9fb2 d73b 0321 ca3c 2f5e e9bd 477a 083d
00000340: 0876 7cbb 07e3 e43c 3ca1 96bd bf98 bfbd
00000350: e241 9dbd 09ab c03d accd 84be e005 603e
00000360: 520c 9cbd 99a3 a6bd d312 553e 3f8e 7d3e
00000370: ccb9 c43d 6121 eb3c 4b9b 023e f55d 33be
00000380: 559e b3bd 67c1 acbc 44d9 3b3e 9e7d 92be
00000390: 7855 4abd 6ad2 0dbe 426d e73d d6cc d03b
000003a0: ce20 d3bd c8fb 8fbd 7e7d 5abb 67d2 6e3e
000003b0: 9bf3 f43c 4e3b d03d 0bf9 c8bd 6488 f83d
000003c0: 5502 213e 89fd 18bd c427 63be 1764 a0bd
000003d0: 2917 89bd a628 973e ae12 1fbd 9e43 fabb
000003e0: 478f abbc ff8b 9dbd 5204 763e 59a7 febc
000003f0: d6df 493c 4455 963c 1910 d03d fb57 4fbd
-0.036079068 0.11452972 -0.067687705 0.2662441 -0.114295 -0.21027851 0.04094686 -0.1153935
0.11083487 0.29054466 -0.10772669 0.061654292 0.12180479 -0.17917928 -0.010680394 -0.2170504
-0.026489068 0.14243305 -0.13963613 -0.061022405 -0.25047508 -0.19516984 0.0144175375 -0.13554662
-0.06824123 -0.05530895 -0.19587909 -0.20763949 -0.10407378 -0.034143575 0.20602587 -0.049956936
0.035748597 0.20649526 0.06709244 0.13354002 -0.012671163 0.06846069 0.045180295 -0.19975835
-0.02269129 -0.04947627 0.21350513 -0.13597342 0.19849634 -0.060346868 -0.049035307 0.03286914
0.22655192 -0.10982813 -0.039507218 -0.17081425 -0.16544668 -0.14486006 -0.08405925 0.07583484
0.067711554 0.00012666939 -0.03850543 -0.16198163 -0.06511921 -0.031696122 0.1065889 -0.09736076
0.10817283 0.07122531 0.05347071 -0.17382368 -0.076244 0.013523483 0.061729565 0.2025801
-0.06824917 -0.19020191 0.026185634 0.08989316 -0.0040411316 0.044399384 -0.19100559 -0.01228127
-0.25271773 -0.23556955 0.034791477 -0.055536285 0.094398014 -0.0006592536 -0.06881288 -0.0701229
0.27184337 -0.20448105 -0.08352412 -0.07587827 -0.14902544 0.09854582 0.089232765 -0.22959873
-0.40368968 -0.14821054 -0.06512783 -0.31518248 -0.22026306 -0.07123744 0.20645547 0.13637678
-0.31447124 -0.1058562 0.0032429018 0.285297 -0.33278066 0.34223622 -0.25238174 0.2749399
-0.12647432 -0.14574106 0.10214289 0.09697301 0.07053708 0.27317923 -0.38001254 0.057957895
0.089096926 -0.38998657 0.25639156 0.20048937 0.095783874 0.32737866 0.1811477 -0.14811307
-0.10965327 0.2898314 0.022594806 0.23933303 -0.18292093 0.07451487 -0.17314938 -0.17479376
-0.092704795 0.26094538 0.11692078 -0.21375829 -0.018178998 -0.084431104 -0.14314535 -0.10164628
0.22864647 -0.17667642 -0.18081181 -0.14853185 -0.14656095 0.011672539 0.03178389 -0.12445188
-0.2529335 0.06627454 -0.12574384 -0.045179904 -0.1797116 0.08361159 -0.1024122 -0.010289857
0.024348622 0.13674094 -0.12223552 -0.07489281 -0.099560924 0.122086115 0.06495229 -0.19484417
0.06693203 0.022031821 -0.109027155 -0.22073518 0.19256741 0.033472903 0.16230784 0.05237327
-0.055614453 0.14593962 0.12928036 -0.049239587 0.061957844 0.044735134 -0.06039749 0.05372176
0.1784719 0.085377134 -0.1739104 -0.16833755 -0.029531443 -0.01712822 0.07524636 -0.03726662
0.044583786 -0.23781571 0.05209625 -0.22056748 0.062069297 0.055408977 0.25023073 0.24332215
-0.24608281 -0.15091565 0.1591559 0.2499499 0.0065825726 0.024673944 -0.11394917 0.033319738
-0.00385225 0.027940286 -0.07354972 -0.09355306 -0.07678582 0.09407622 -0.25938165 0.21877241
-0.076195374 -0.081366725 0.20807962 0.24761294 0.096057504 0.02870244 0.12754552 -0.1751631
-0.08770434 -0.021088315 0.18344599 -0.28611463 -0.049397916 -0.13849798 0.11300136 0.0063720746
-0.103089914 -0.07030445 -0.003333896 0.2332245 0.029901316 0.101675615 -0.09813126 0.121353894
0.15723546 -0.037351165 -0.22183138 -0.078315906 -0.066938706 0.295232 -0.038836174 -0.007637455
-0.020942343 -0.07692718 0.24025086 -0.031085657 0.012321433 0.018351205 0.101593204 -0.050621014

weight_hh_l1 f4 [128, 32]
00000000: 2d9f f6bc 5bd6 76bd 2a45 29bd 1456 9e3c
00000010: 1032 603d 4100 17be f44e e93d d9cd d63d
00000020: 281e be3b 3d74 e83b 1ec1 cebd 24f3 e6bd
00000030: 64c4 3c3e 67c7 e1bd 535e dd3c 05d2 3fbe
00000040: 1181 003d 2b6a c43b 88a9 3dbc 418a 20be
00000050: 0d91 8fbd b6ec 2e3c 181d 79be 44c7 2fbe
00000060: 3bcf 383e c968 eebd 7885 523d 945c 153e
00000070: 7b53 b83c 36cf ca3d 5172 2abe 53e0 6c3d
00000080: fecf b3bd be08 dd3c a933 103c 4926 03be
00000090: 3c32 aabd 3b8d 7cbd f10a e2bd 0443 0b3e
000000a0: 7670 b7bb 5a47 823d 2fa7 4fbd cbcb b43d
000000b0: 55fb 70bd fc52 5e3d 136e 8dbb d2cc 98bc
000000c0: 2db5 32bd 9a6d d23d a57e fa3d 5633 78bd
000000d0: 6d62 b83d 6311 e43d 00d2 02be b81c 2f3e
000000e0: 3a2d 113e c8bd 0f3e 5bb1 26be 7678 283e
000000f0: ccbc 37be 8b4a 483e 0d2e 893d 6231 ff3d
00000100: 28a1 453e 5a20 61be 49cb 213e 3369 1d3d
00000110: 740d 273d 3b3e 5bbd 0fcb 51be 243a bdbd
00000120: 9d70 f53d 0a7b 86be 3397 e0bc c77f c2bd
00000130: 2584 103d 612b 9bbc 88d9 083e 6bed 20be
00000140: 26d7 09be 6ef4 44be a974 3bbe bfd3 ef3c
00000150: 2ec2 cbbd 405b 063e 27d9 f2bc 1d5c 6fbd
00000160: 84f5 feb9 4c72 69bd 5ad9 a63c 045f 583c
00000170: ee97 86bd b9a1 f3bd d7a7 5ebe 5539 c93c
00000180: c4be 13bb 8d35 29be 7d2f fabd f041 ddbd
00000190: 9d56 133e ac48 243e 1170 43bc 8832 b1bd
000001a0: ec1d 81be 89da b3bb 940f bcbc 4609 243e
000001b0: af24 50bd 2ddc 543e 3ec9 4fbe 9ed8 75be
000001c0: 1e27 08bd cb68 3b3c e6ef 243e d927 93be
000001d0: 4901 3fbc dd5f 493e a31a 2b3b aa33 90be
000001e0: 4174 6b3e fb39 953e f458 213c 6c1e 38bc
000001f0: 74a3 9c3e 94f8 c83d 94c7 9abd 0345 2d3d
00000200: 893d e6bd 82f3 dabd 52e7 6f3d 530b 653d
00000210: 3877 833d bbc6 4e3d f8c0 d4bd caef 303d
00000220: 2fb7 2bbe 2abe 513d e1da dfbd 21f1 bcbd
00000230: 01fa 343d c0c1 0f3e 03c6 3bbe 14c5 20be
00000240: d67a 4d3d 9519 93bd 7cf5 34be 0881 3bbe
00000250: a51f b6bd 3697 91bc a1a2 7dbd 4288 c0bd
00000260: 9e60 9cbd 9a06 063d a256 6ebd 5c04 f83b
00000270: 231c 15be da17 053e fab2 64bd 9d52 27bd
00000280: 6f48 063d 9a18 01be 5a84 b8bb b84c 073e
00000290: a0cb 143e d546 7fbd 4fd7 b03d e3c4 a9bb
000002a0: 7b32 0ebe dced 56bd 37bf 053e 1d9b 24be
000002b0: 6302 36be ced0 acbd 902e 9a3d 55a7 dc3d
000002c0: 4672 a4bc ef6f f73d 2904 0dbc a869 ce3d
000002d0: b8cd e4bd 9b5d 593d 3b9a 69be c1bb cfbd
000002e0: c140 83bd d60d 17be e77f f6bd 163b 353d
000002f0: f4b5 d2bd 7e01 2f3e 8cdb 483d c217 803d
00000300: 61de 82bd 3ce0 803d 814d d53d 5547 993d
00000310: f351 a13d ddca a5bd 4bf1 41bd 9572 2fbe
00000320: b933 1c3e e63a f03d ad97 f2bd bc53 20bd
00000330: 29ff 103e 66dd 283e b105 71be d5f6 19be
00000340: c45a fd3c e9aa f8ba cd5c 41be dc59 08be
00000350: 0bc0 83bc 0d56 e43d 3422 213e 3abc abbd
00000360: f7b8 b0bd 99b6 edbd e2be 7c3c 2fd5 903d
00000370: 95b0 6ebb c0d5 26be 4f11 83bd 9724 1dbc
00000380: fa70 953e 043f d9bc 7a3e 203e c520 2fbe
00000390: e524 763c 7207 8e3d f81a 99bd 69cc 543d
000003a0: 0490 13be 68b9 38be e734 5cbe 4c0b 833e
000003b0: 9fad 48bb e339 eebd e1ba 8fbd 13cf 3dbe
000003c0: e4e1 423d a67a 2ebc 06fb 6bbe e885 f53c
000003d0: 6ea8 2bbd 88a1 ed3d a138 0d3d 1f64 debd
000003e0: 8d01 633c 7f3d 6639 46ef eebc a95d 4d3d
000003f0: 8928 963e 14ab debd d975 b2bc 6769 2abc
-0.030105198 -0.06026302 -0.041325726 0.019328155 0.054735243 -0.1474619 0.11392012 0.10488481
0.0058019347 0.007093935 -0.10095428 -0.11276844 0.18434292 -0.11024361 0.027022516 -0.1873246
0.031373087 0.0059941015 -0.011576064 -0.1567774 -0.07010088 0.0106765535 -0.24327505 -0.17165858
0.18047802 -0.1164108 0.051396817 0.14586097 0.022500744 0.099028036 -0.16645171 0.05783112
-0.08779906 0.026981708 0.008801379 -0.12807573 -0.08310363 -0.061658125 -0.11037243 0.13599783
-0.005598123 0.063612655 -0.050696548 0.08827933 -0.05883344 0.05427836 -0.0043161004 -0.018652353
-0.043629814 0.10274811 0.12231187 -0.060595833 0.09003148 0.11136129 -0.12775421 0.17100799
0.14177409 0.1403724 -0.16278593 0.16452202 -0.17943114 0.19559686 0.066982366 0.12460591
0.19299757 -0.21984997 0.15800203 0.038430404 0.040784314 -0.053526144 -0.20487617 -0.09239605
0.1198437 -0.26265746 -0.027415847 -0.09497028 0.035282273 -0.018941583 0.13364232 -0.15715568
-0.13460979 -0.19233868 -0.18306221 0.029275773 -0.09949146 0.13120747 -0.029644562 -0.058437455
-0.0004862958 -0.056993768 0.020367313 0.013206247 -0.06571947 -0.118960805 -0.21743713 0.02456347
-0.0022544125 -0.16524334 -0.12216089 -0.10803592 0.14388509 0.16043347 -0.011928574 -0.08652216
-0.2521814 -0.005488698 -0.022956647 0.16019163 -0.050816234 0.20787115 -0.20291612 -0.24008414
-0.03324043 0.011438559 0.16107139 -0.2874134 -0.011658021 0.19665475 0.0026108406 -0.28164417
0.22993566 0.29145798 0.009847868 -0.011237722 0.30593455 0.098130375 -0.07557598 0.042302143
-0.11242206 -0.10690977 0.058570214 0.055919003 0.064192235 0.050482493 -0.10388368 0.04319743
-0.16769098 0.051206745 -0.1093042 -0.09225679 0.044183735 0.14038754 -0.18337254 -0.1570018
0.050165974 -0.07182614 -0.1767177 -0.1831094 -0.088927545 -0.017772298 -0.061922673 -0.09400989
-0.07635616 0.03272114 -0.05818809 0.007568879 -0.14561515 0.1299738 -0.055834748 -0.04085027
0.03278392 -0.12607041 -0.005631012 0.1321286 0.14530802 -0.06232341 0.08634817 -0.0051809414
-0.13886444 -0.052472934 0.13061224 -0.16074796 -0.17774348 -0.08438264 0.07528412 0.107741036
-0.020074021 0.120818965 -0.008606949 0.10078746 -0.1117205 0.053067785 -0.2281274 -0.10143233
-0.06408835 -0.14751372 -0.12036114 0.044245802 -0.10288611 0.17090413 0.0490375 0.062545314
-0.06390072 0.06292769 0.10415173 0.07484309 0.07876959 -0.08095334 -0.047349256 -0.17133553
0.15254106 0.11729984 -0.11845336 -0.039142355 0.14159836 0.16490707 -0.23537327 -0.15035565
0.03092707 -0.0018971834 -0.18883057 -0.13315529 -0.016082784 0.111492254 0.15735704 -0.08385511
-0.08629029 -0.11607093 0.015426369 0.070719115 -0.003642117 -0.16292477 -0.06399786 -0.009591243
0.29187757 -0.026519306 0.15648833 -0.17102344 0.015023445 0.06935014 -0.07475847 0.051952753
-0.14410406 -0.18039477 -0.21504556 0.25594556 -0.0030621064 -0.11632135 -0.07018066 -0.18536024
0.047578707 -0.010649359 -0.23044977 0.029971078 -0.041908674 0.11603075 0.034477834 -0.1085894
0.01385535 0.00021957418 -0.029166829 0.05013815 0.293278 -0.10872474 -0.02178471 -0.010401106

bias_ih_l1 f4 [128]
00000000: 5d2d ecbd c261 d7bd 3115 32bc 0937 33be
00000010: 6c9e 85bd 20a3 963b a55b 7f3d f4f6 26bd
00000020: 7305 033d 1704 10be be8c c03d 2501 923c
00000030: 8e2a 273d 9186 acbb c0d8 15be da5b 723c
00000040: d7a0 8dbd 34bb 41be dc9d 7cbe 702c d8bd
00000050: 2f67 68bd 85dc 05be 89e8 d5bd bc03 4e3a
00000060: 978a 9ebd 780b 893c 1fdf 53be 8d6e 953d
00000070: 8a48 f5bb 2f37 d3bd 08a4 57be fe27 40be
00000080: 7643 f0bd 4842 e5bc a971 2bbd 6df0 8f3d
00000090: 7697 883d 2ae9 613d fe54 0bbe 6090 893c
000000a0: 5e3f 42bc 346e f3bd 3a2f 15bd 96f5 5cbd
000000b0: 12be d5bd f72b ddbc 9c52 8dbd f07e 4a3d
000000c0: 0ba7 2abe d2d8 babc 9492 9abe 321e 7e3c
000000d0: 6b27 9dbd 8031 3e3d 1f2f 06be f1a9 20be
000000e0: dc3d 9dbc 4f02 973d cd2a 8b3d a9bb a63d
000000f0: 9e89 94bd 5044 6c3d 05f7 a3bd dc56 5fbd
00000100: 479a 1cbe 4608 b73c c5a9 9fbd fc75 223e
00000110: 223e a5bd 3257 cb3d 2ab3 02bc 8ef6 113e
00000120: d926 c3bd 2c46 033e 787f 163d b5c8 18bd
00000130: 54a5 0ebe f023 86bd 4b5f e4bd 4897 fbbc
00000140: 12ed 4a3d 2c3c 3cbe e8e5 223d b4bd d4bd
00000150: 343d ebbd 7061 82bd 4d05 49bd a04d 47bd
00000160: c295 323d 1987 2fbe 8bb7 63bc 734d b3bd
00000170: 8b74 4abd 209a 45bd 1df8 203d a636 213e
00000180: d8df 94bc b494 37bd 1cd5 303d 918c 1dbe
00000190: 39e8 46be c3e4 95bd ce08 bdbd cc79 94bd
000001a0: e3c9 b7bd fe0a 003e 0f56 f4bd d89e 9a3d
000001b0: 82bd b0bc b2c8 50be 2cd0 43bd 2e10 6c3d
000001c0: b3bf 05be 32c8 25bd 8b4a 20bd 00f3 e9b9
000001d0: 323f 04be 073e d93a df5d e7bc f51f c0bd
000001e0: 9ae7 653c 0471 1bbd a7b4 59be 4248 e53d
000001f0: d557 88bb 5a85 8d3d 1af6 8c3d 8b75 06be
-0.1153209 -0.10516693 -0.01086931 -0.17501463 -0.06524357 0.0045970827 0.06234326 -0.040762857
0.03198762 -0.1406406 0.094018444 0.017822811 0.040812068 -0.005265065 -0.14633465 0.014792407
-0.069154434 -0.18919069 -0.24669594 -0.10555351 -0.05673903 -0.13072403 -0.10444743 0.0007858833
-0.07741278 0.016729102 -0.20690583 0.072964765 -0.007485454 -0.1031326 -0.21058667 -0.18765256
-0.11731617 -0.027985707 -0.04185644 0.070282795 0.06669514 0.055154003 -0.1360664 0.016792476
-0.011855928 -0.11886254 -0.036421992 -0.053945147 -0.10436644 -0.026998503 -0.06900522 0.049437463
-0.16665284 -0.022808466 -0.30189955 0.015510129 -0.07673534 0.046433926 -0.13103913 -0.15689828
-0.019194536 0.07373487 0.06795273 0.08141262 -0.07252811 0.057682335 -0.080060996 -0.054526195
-0.15293227 0.022342812 -0.07796053 0.1586532 -0.080684915 0.099287406 -0.007977286 0.1425421
-0.09528894 0.12819737 0.036742657 -0.037300784 -0.13930255 -0.06549823 -0.11150988 -0.030711785
0.049542494 -0.18382329 0.039770037 -0.103877455 -0.11486283 -0.06366241 -0.04907732 -0.048658013
0.04359985 -0.1714138 -0.0138987405 -0.08755007 -0.04942755 -0.04824269 0.03929912 0.15743503
-0.018173143 -0.04481955 0.043171987 -0.15385653 -0.19424523 -0.073190235 -0.09230195 -0.072497934
-0.08974054 0.12504193 -0.11930477 0.07549828 -0.02157474 -0.20389059 -0.04780595 0.057632618
-0.13061409 -0.040474124 -0.03913359 -0.00044622272 -0.12914732 0.0016574272 -0.028243003 -0.09381095
0.014032269 -0.037949577 -0.2126032 0.11195423 -0.004160861 0.069102004 0.06882878 -0.13130777

bias_hh_l1 f4 [128]
00000000: bdec 21be e110 45bd ce12 233d c6df a5bc
00000010: 2ebe 19be 7638 d33d 815b 873d edaf 2a3b
00000020: ca63 9dbd e87a 04be 264c b33d 7b3f 133e
00000030: a174 7fbd c6d6 58bd 28f5 80be 3a78 2bbe
00000040: bfa7 8b3d b640 8dbb bd7a a1bc 9b84 2f3e
00000050: f5bd 1dbe 6908 04be 535a 55be 6457 033e
00000060: 8380 b63c b7dc 00be e13c 15be 2e8d 3f3e
00000070: fab1 383d 6b90 2ebd 379d 30be 3b95 bcbd
00000080: 1a76 aa3c 8934 313e 1d16 2bbe d8c4 3abe
00000090: 8f36 0ebd 60fd 623d 7acf 18bc b689 8fbe
000000a0: 372f 5f3d 18f9 d33d e4f2 cbbd bc83 02be
000000b0: 9b4d 823d c0ed acbd 77a6 3ebe c21e 383d
000000c0: fe1e f13d 9510 90bc ad71 60be 4baa 203d
000000d0: 24f1 83bd 2cd1 aabd 7edc 2a3c 5786 253e
000000e0: bbc4 02be 2242 3d3e 66e1 47be a7cd e13d
000000f0: 0b69 3d3e 2ef4 7ebe 8d45 63be 9acf 203d
00000100: b326 ef3d 5411 ffba d57f 553d 844c 1fbd
00000110: 4361 47bd 9249 fabd 8a3f 01be 7e76 683c
00000120: a549 b53d 47ce d6bd ff79 d83d 0e9a d6bc
00000130: d075 00be 0751 e4bc 62bc 393e 9439 913d
00000140: 4a29 563d d3ee 0c3c 4e1a 7fbb ad5e 053e
00000150: 5aee b93c 7f70 033e c598 86bc e291 313e
00000160: ea42 38bd 09ba e53d 6950 613d 2964 2abe
00000170: a1d9 24bd c959 fd3d a210 3ebe 7e39 80bd
00000180: 459b 213e d38f 23be be93 44be 3e2c 05be
00000190: 118b 8c3c 570a 5f3e 2d51 b6bc 9328 50be
000001a0: 0c5e ccbd 219a e33c 3d7e 9fbc e630 a1bd
000001b0: 764c 5fbd 9fb7 703d f061 79be d30c 213c
000001c0: f158 46be 9850 4cbe 22eb 11be 91d8 12bc
000001d0: 51fb 1abd 3f0d 7d3d 0e31 c33d 5446 7b3d
000001e0: be76 ec3d 544e bd3d 3e5e 323d 9649 eebd
000001f0: 7ab8 c73d a8d1 d5bd 0088 f1bd 6758 0d3d
-0.15812965 -0.0481118 0.039812855 -0.020248305 -0.15013954 0.103135034 0.0660925 0.0026044801
-0.07685049 -0.1293751 0.087547585 0.14379685 -0.062367085 -0.0529392 -0.2518704 -0.16745082
0.068191044 -0.0043106927 -0.019711846 0.17140429 -0.15404494 -0.12893833 -0.20835237 0.12826306
0.022278076 -0.12584196 -0.14574005 0.187062 0.045091607 -0.042618196 -0.17247473 -0.09208151
0.020808268 0.17305197 -0.16707654 -0.18239152 -0.03472 0.05541742 -0.00932681 -0.28034753
0.054488387 0.10350245 -0.09958437 -0.12745565 0.06362458 -0.08443785 -0.18618189 0.044951208
0.117734894 -0.017586032 -0.21918364 0.039224904 -0.06442478 -0.083406776 0.010428546 0.16164528
-0.12770359 0.18482259 -0.19519576 0.11025553 0.18497102 -0.24897835 -0.221945 0.039260484
0.11677303 -0.001946012 0.052123863 -0.03889133 -0.04867674 -0.12221064 -0.12621894 0.014188407
0.08851937 -0.10488563 0.10570144 -0.026196506 -0.12544942 -0.027870668 0.18138269 0.0709106
0.05228547 0.008601862 -0.003892559 0.13024397 0.022696663 0.12835883 -0.016430268 0.17340806
-0.04498569 0.11217124 0.055008326 -0.1663977 -0.04024661 0.12370641 -0.18561032 -0.06260966
0.15781887 -0.15972833 -0.19196984 -0.13005158 0.017156156 0.21781288 -0.022255505 -0.20327978
-0.099788755 0.027783455 -0.019469375 -0.07870655 -0.05451628 0.058768865 -0.24353766 0.009829718
-0.19369866 -0.19952619 -0.14249852 -0.008962766 -0.03783733 0.06178021 0.09530841 0.061346367
0.11546086 0.092434555 0.043546908 -0.11635129 0.09751983 -0.104403794 -0.11793518 0.034508135

weight f4 [1, 32]
00000000: e647 d4bd 9a93 2e3d 05bb ef3d 6433 05be
00000010: e36f b8bd b82a 5cbe 059f 3a3c b633 2f3c
00000020: 5303 563e 6fc7 973d 0b51 2f3e 23f2 4cbe
00000030: 453b 85bd eeb2 75bd df38 3cbc 4b18 1e3e
00000040: 0eac b13d a3e5 523d 6f44 26bb 880e 033e
00000050: c2df 15be fd81 36be a063 a73d b19d 293e
00000060: e664 17be 42de 5dbe 0d93 b0bd d0f5 2ebe
00000070: f5ec 19be e40b 2bbd 8f92 813d b64b 373d
-0.10365276 0.042621233 0.11705593 -0.13007885 -0.09005716 -0.21500671 0.011390452 0.010693481
0.20899706 0.07411086 0.17120759 -0.20014243 -0.065054454 -0.059985094 -0.0114881685 0.15438955
0.08675395 0.05148853 -0.002537038 0.12798512 -0.14636138 -0.17823024 0.08173299 0.16564061
-0.14784583 -0.21666816 -0.08621798 -0.17085958 -0.15031798 -0.041759387 0.06326782 0.044749938
