quant/ml/saved_dummy_model.pt (torch, 2946 bytes, 1 tensors)

weight f4 [10, 20]
0.21559781 0.83558124 0.45949668 0.35328406 0.7627624 0.3653698 0.8019264 0.19056231
0.15061992 0.6297142 0.18874979 0.8762118 0.7795054 0.7061959 0.28177524 0.8004679
0.4176426 0.48632413 0.32246166 0.73123044 0.033085704 0.11583346 0.057998836 0.2548781
0.49088973 0.22281009 0.29201847 0.5960051 0.72581035 0.87529397 0.15388048 0.25160348
0.6399427 0.07028347 0.12540108 0.42501116 0.24052513 0.14249969 0.3800336 0.19678462
0.3672042 0.57036936 0.15119159 0.8339168 0.098288536 0.06411183 0.9856486 0.32304567
0.5766406 0.5195726 0.84899956 0.57760537 0.70178246 0.34051657 0.07221985 0.41934818
0.4164195 0.9659217 0.7690602 0.4807425 0.8030062 0.8377052 0.24471319 0.9845797
0.45788085 0.8268881 0.05780828 0.19203085 0.05801958 0.7561185 0.6498946 0.08130944
0.8416985 0.95457804 0.9794069 0.9679661 0.5449081 0.0451681 0.15867943 0.5305487
0.7518661 0.46311325 0.34552753 0.8364492 0.30576628 0.8221583 0.98131746 0.5916685
0.2952671 0.46701783 0.5391183 0.6404072 0.113153696 0.9261872 0.83611876 0.41321337
0.8051493 0.55477834 0.75550276 0.883259 0.7903101 0.10330719 0.7871861 0.38350135
0.69902116 0.6190664 0.3435213 0.62793595 0.71204907 0.71984637 0.52245855 0.075519085
0.2234726 0.7005308 0.0841974 0.45722198 0.46327233 0.80132645 0.20357382 0.6549002
0.43058836 0.16320992 0.14345962 0.30167252 0.77596116 0.8867951 0.4141515 0.47263002
0.8765027 0.5811032 0.75842077 0.0069141984 0.3648799 0.5111995 0.6483507 0.07075435
0.99784625 0.03960836 0.04875666 0.36569595 0.5917755 0.4520399 0.84080887 0.53818035
0.36640346 0.33258146 0.17827654 0.7394756 0.78411967 0.6679123 0.17924386 0.21695876
0.44132894 0.46787214 0.1530596 0.63526905 0.5692565 0.1547625 0.039961338 0.36983913
0.92602617 0.3379488 0.4380778 0.743872 0.8306096 0.74346954 0.26134485 0.11463225
0.6330027 0.30643582 0.25567096 0.6057755 0.07277775 0.8995951 0.752284 0.87074286
0.46927547 0.4590038 0.5434119 0.55343455 0.17696232 0.95772326 0.46637213 0.6542084
0.5509592 0.79156214 0.07287902 0.5840406 0.6991931 0.78401667 0.32374656 0.2881235
0.25069898 0.5185387 0.10519862 0.3145978 0.33329862 0.4648 0.531092 0.21264589
00000000: acc5 5c3e a7e8 553f 2643 eb3e a6e1 b43e
00000010: 6644 433f c011 bb3e 0c4b 4d3f c422 433e
00000020: 1c3c 1a3e f334 213f a047 413e 6b4f 603f
00000030: aa8d 473f 41c9 343f d844 903e 77eb 4c3f
00000040: 40d5 d53e 7aff f83e b219 a53e eb31 3b3f
00000050: e084 073d 183a ed3d 3090 6d3d 627f 823e
00000060: e655 fb3e 5428 643e 7283 953e ca93 183f
00000070: b5ce 393f 4413 603f d892 1d3e 2cd2 803e
00000080: 49d3 233f c8f0 8f3d 2469 003e 109b d93e
00000090: 384c 763e 70eb 113e c493 c23e e881 493e
000000a0: 3002 bc3e ba03 123f f8d1 1a3e 927b 553f
000000b0: 804b c93d 104d 833d 7753 7c3f 3e66 a53e
000000c0: b89e 133f b602 053f 0958 593f f2dd 133f
000000d0: 04a8 333f 3058 ae3e 00e8 933d ceb4 d63e
000000e0: f034 d53e a546 773f 21e1 443f e223 f63e
000000f0: d091 4d3f d973 563f 1896 7a3e 6a0d 7c3f
00000100: 5c6f ea3e f0ae 533f 60c8 6c3d bca3 443e
00000110: f0a5 6d3d fb90 413f 7e5f 263f 9085 a63d
00000120: 8e79 573f 3a5f 743f 69ba 7a3f a0cc 773f
00000130: 197f 0b3f 3002 393d dc7c 223e 0ad2 073f
00000140: 4c7a 403f 2e1d ed3e fce8 b03e 8921 563f
00000150: 668d 9c3e f778 523f 9f37 7b3f 9677 173f
00000160: 402d 973e f61c ef3e a803 0a3f baf1 233f
00000170: 20bd e73d 9b1a 6d3f e10b 563f b490 d33e
00000180: 441e 4e3f f405 0e3f a168 413f 431d 623f
00000190: c351 4a3f b892 d33d 0785 493f 4a5a c43e
000001a0: 0df3 323f 237b 1e3f 06e2 af3e 69c0 203f
000001b0: d948 363f da47 383f d8bf 053f c0a9 9a3d
000001c0: 00d6 643e fd55 333f b06f ac3d 0019 ea3e
000001d0: 0832 ed3e bb23 4d3f a875 503e 8aa7 273f
000001e0: 1476 dc3e 8020 273e 14e7 123e d274 9a3e
000001f0: 64a5 463f 0105 633f aa0b d43e 90fc f13e
00000200: 7b62 603f 2ec3 143f dd27 423f 8090 e23b
00000210: 8ad1 ba3e f8dd 023f 50fa 253f a8e7 903d
00000220: da72 7f3f 603c 223d 10b5 473d 803c bb3e
00000230: 997e 173f c671 e73e 403f 573f 30c6 093f
00000240: 3c99 bb3e 1e48 aa3e 208e 363e 464e 3d3f
00000250: 11bc 483f 4dfc 2a3f b48b 373e 702a 5e3e
00000260: def5 e13e f08c ef3e a8bb 1c3e fea0 223f
00000270: cbba 113f 107a 1e3e 80ae 233d 8e5b bd3e
00000280: 0d10 6d3f a007 ad3e bc4b e03e 656e 3e3f
00000290: d5a2 543f 0554 3e3f fece 853e 50c4 ea3d
000002a0: 770c 223f 28e5 9c3e 4ee7 823e 1a14 1b3f
000002b0: 800c 953d dd4b 663f af95 403f 01e9 5e3f
000002c0: e044 f03e 8c02 eb3e 0b1d 0b3f e3ad 0d3f
000002d0: 9c35 353e 5a2d 753f 54c8 ee3e 347a 273f
000002e0: aa0b 0d3f d1a3 4a3f 9841 953d af83 153f
000002f0: 52fe 323f 51b5 483f 1cc2 a53e ec84 933e
00000300: 9e5b 803e f4be 043f 6072 d73d f612 a13e
00000310: 1ea6 aa3e 44fa ed3e a5f5 073f d8bf 593e
